examples/lstm/rnn_mnist.pth (torch, 44843 bytes, 5 tensors)

lstm.weight_ih_l0 f4 [200, 1]
00000000: d7bd b73c 88f3 243e cd29 243e 98f6 e63c
00000010: fa10 063d ad06 bb3c 0c95 9e3c 94f9 113d
00000020: ca49 233e 4daf d23c 835f b43c 4db8 293e
00000030: 1be9 fa3c cd88 8abd 0ff3 313d 5658 263e
00000040: a97a bb3c 54e2 933c 0743 233e ba88 253e
00000050: f4eb 963d c4cb 0d3d 9977 393e afc1 bb3c
00000060: f573 243e 2125 243e fe81 de3c 97e2 ae3c
00000070: baf0 073d a966 953c 0de8 223e c1f4 243e
00000080: 198c b43c 88ad c73c f381 c53c 5de9 a53d
00000090: 6d9a 223e 3e3a 9b3c 7e15 3e3d d493 8d3c
000000a0: 5106 b03c 797e d23c a56b b43d d4e9 513d
000000b0: a0a2 2d3e 2e7e b43c 03da ad3c 415b 2c3e
000000c0: 57f7 b93c bc20 64bd 992e fa3d ec03 4c3d
000000d0: f552 76bd 8574 053e 804d a93d 4768 973d
000000e0: f2ba a33c 0ab1 383d 172e 513d 1b47 bf3d
000000f0: 292e d73d ab2f 5e3d 69c0 153e fb4b 00be
00000100: 070b 653d 5488 633d f646 643d 9c06 0c3e
00000110: 459d 683d 3e63 863d 762f 833d 3271 393e
00000120: 56c2 7d3d 2280 223d 6c5c 973d 9a5b d43d
00000130: 477a 593d b85e 143e 9134 32bd 8cff 843d
00000140: 18bb 873d cc5b 8a3d b831 873d 73d2 7f3d
00000150: e749 1b3e d2c4 cd3d 2b5b 223e 8064 6b3d
00000160: b4fc 9d3d 434d 0e3e c012 fd3d 59ea 38bd
00000170: 8f23 f23d 49ac ab3d 5ea5 733d 6e4a 033e
00000180: 5430 503c 0c58 c13d 41a3 183e 9be3 b43d
00000190: 714a 193d 6761 243d f691 2bbd a24b fc3d
000001a0: bf37 2c3d b670 303d 957f 08be ebab c03d
000001b0: 67cc b13d ca71 f53d ad23 8bbd 51a3 c1bd
000001c0: 4b51 f5bd dede d3bd cb9c 033e 23f3 003e
000001d0: dae0 21bd 5819 20bc 7507 c1bd ed78 bcbd
000001e0: b871 713c 6040 bd3d 3f30 b7bd 2aca f63d
000001f0: 4e1d a63d f7c8 b0bd 69e1 013e f00f b03d
00000200: fbd7 093e bd7e 09bd f501 bc3d f708 073e
00000210: ebec c93d f303 b1bd a5cd babd 1db7 0e3e
00000220: 5b8a bdbd e05d d03d 4a80 e43d 3acf d83d
00000230: fd30 bfbd e9b7 0ebe 4a9d babd 2cb2 b83d
00000240: 93f0 fb3d 4a47 2dbd c1b5 b5bd 72d4 bfbd
00000250: 40b4 ba3d a081 f1bd 0990 233e ef26 223e
00000260: 47d5 b53c 3956 d23c c997 223e e419 c33c
00000270: 3077 bb3c 292c 883d 30f6 b23c 176e 003e
00000280: 2a7b e63d 74b1 bf3c a533 423d a4ae 213e
00000290: 4f53 873d 5862 8d3d e13d 243e 5deb 213e
000002a0: f29c 013d 9052 413e cb2a c93d d151 c93c
000002b0: 3c46 573d fc73 753c 3869 f43c e613 263e
000002c0: a71e 6f3d 57b9 273e f1b9 203e 4c35 303e
000002d0: 1177 843d 201a bc3c c39c a93c e884 bb3c
000002e0: bf86 b23c ef60 f93c 3dc7 603c 924b 873d
000002f0: 19ce 1f3e a3b2 e83c fc5a 723d 16c7 bf3c
00000300: 20f7 133d 7821 223e a0a4 013d d8f8 253e
00000310: 0787 a63c bce7 c83c fc16 213e 49cd 333e
0.02242939 0.16108525 0.1603157 0.028193757 0.032731034 0.022830332 0.01935818 0.035638407
0.15946117 0.025718356 0.0220182 0.16574211 0.030628731 -0.06764374 0.04344469 0.16244635
0.022885637 0.018052258 0.15943538 0.16165438 0.07369223 0.034618154 0.18112029 0.022919504
0.16059859 0.16029789 0.027161594 0.02134828 0.03318856 0.018237429 0.15908833 0.16108991
0.02203946 0.024374738 0.024109816 0.08101151 0.15879221 0.01894867 0.046407215 0.017282404
0.021487387 0.025695072 0.08809594 0.051248387 0.16956568 0.022032823 0.02122212 0.16831686
0.022700949 -0.05569528 0.12215919 0.049808428 -0.060137708 0.1303273 0.08266735 0.07392936
0.019986603 0.045090713 0.051069345 0.09339734 0.10506851 0.05424468 0.1462418 -0.12528984
0.05591872 0.055549935 0.055731736 0.13674396 0.05679061 0.06561898 0.06405537 0.18109587
0.06195291 0.03967298 0.07390675 0.10369034 0.05309513 0.14489257 -0.043507162 0.06494054
0.06627482 0.0675579 0.0660128 0.06245656 0.1516491 0.10047306 0.1585509 0.05746889
0.07714215 0.1389666 0.12357092 -0.045145366 0.118231885 0.0838247 0.05948388 0.12821361
0.012706835 0.09440622 0.14906026 0.08832475 0.03742451 0.040131953 -0.041887246 0.12319113
0.04204535 0.04307624 -0.13329919 0.09407791 0.08681565 0.11984594 -0.06793914 -0.09454978
-0.11978396 -0.10345243 0.1285278 0.1259275 -0.039521076 -0.009771667 -0.094252504 -0.09202752
0.014736585 0.09240794 -0.08944749 0.120502785 0.08111058 -0.08632081 0.12683643 0.0859679
0.13461296 -0.033568133 0.09180061 0.13187014 0.09859642 -0.086433314 -0.09121255 0.1393704
-0.09254905 0.10174155 0.11157282 0.105864 -0.09335516 -0.13937344 -0.09112032 0.090183586
0.12301745 -0.042304315 -0.088725574 -0.093666926 0.09116411 -0.11792302 0.15972914 0.15835164
0.022196425 0.02567588 0.15878214 0.023816057 0.022883981 0.06649048 0.021845907 0.12541996
0.112539604 0.023400046 0.047412533 0.15789276 0.06607687 0.06903523 0.1603923 0.1581244
0.031643815 0.18879151 0.09822615 0.024575146 0.052557215 0.014981266 0.029835328 0.16218528
0.05837884 0.16379295 0.15695931 0.17207831 0.064680226 0.022961676 0.020704633 0.022890523
0.021792768 0.03044173 0.013719377 0.06606211 0.15605964 0.028405493 0.0591688 0.023410361
0.03612435 0.1583308 0.03165114 0.16208208 0.020328058 0.024524562 0.15731424 0.17558779

lstm.weight_hh_l0 f4 [200, 50]
00000000: 0a10 a03e b8a0 96be 3e10 f53c 3ac1 aabd
00000010: 470c 6cbe 3e49 473f 91f3 0e3e 56f5 053f
00000020: ee25 ee3c 83af babe 70f5 b2bd 9209 a5bd
00000030: 5db6 8f3f 1c70 9a3f ec05 403e 4f46 483e
00000040: 4a7c bb3d af12 853e 5443 91bd 0074 693e
00000050: f762 893f 4cd8 fa3d 46ea f03e 82fe cfbe
00000060: c3d2 1c3e c478 ef3e 6905 b73e 65eb 463e
00000070: 949a ddbe 2efe bd3d ae2c d43d 024e 8d3e
00000080: 73c2 c3bd 83bf 3ebf 1154 80bd 8d22 b83d
00000090: 34dc 8dbe 367d 39be d28c 91be e6fe 00bf
000000a0: f69b 75bd 2227 ed3d ffa9 253d cf15 a4bd
000000b0: 8dab f1ba 782c 0fbe 19e2 bebe cc22 af3d
000000c0: 646d 1bbe bca1 a03f e4bb 083e 6ef4 b5bd
000000d0: ce0f 4e3d 1698 903d fc2c d73d a5a0 af3d
000000e0: acad ecbd a792 86bb 1746 043d e1df 8d3d
000000f0: 3b8f aabd 4dbd d6bd 02c6 e2bd 6552 b43c
00000100: e26b 1b3d 4433 df3d 235c 12be 32e5 0ebe
00000110: 4a8e ecbd aa18 c13d 391f b4bd 0fe8 033e
00000120: 5510 523d b31e f5bd e144 e3bd 899c 00bc
00000130: 72da 2c3e 4bc9 98bd 543f a13d 8e73 6e3c
00000140: 05d1 1c3e 533e 523d e8d4 bc3d 0105 b53c
00000150: 6c22 8cbd e16b 823d 0d92 a13c e99e 64bd
00000160: d51b 003e 898d f3bd bd77 2cbe 1351 b13d
00000170: 9107 ddbc f7a2 7ebd f5fa 213d 25c2 a3bb
00000180: 372a 40be 92c6 383d c04d 263e c9d4 d53d
00000190: 34d8 e0bd 4bda 453d 1096 e6bd 53e8 893d
000001a0: 309a dabd 317f 883c 4af2 cbbd 011c 473e
000001b0: ed41 e33c 07f0 56bd baff 1a3d f166 a1bc
000001c0: d796 dd3c 868c f6bd 4656 143e 1fa6 ad3d
000001d0: 8596 38bd 2ca4 8cbd 66e2 5ebe fbd6 97bd
000001e0: bfb2 383c 933b a43d 9322 a23d 834f 013e
000001f0: 3cd5 413e dc05 823d 0071 c53d da37 273e
00000200: b5fd ccbc 2d6d 9b3d fb4d 563e 6b4c b63d
00000210: fb9d 943d c4de 8ebc 548c 51be 74e5 d23d
00000220: 1f3b a2bd 091d f4bd b3df 143e bc82 e03b
00000230: 23e6 b13d 0b23 ee3d b5dc 683d 6b64 4a3e
00000240: 777c ba3c 5549 4fbd 8fe2 b9bd d7c8 d9bd
00000250: 389f c4bc 8f71 f23d bbbf 963e 20c9 773f
00000260: 4f95 34be 38b0 583f 6cfa 5f3f f0ec ba3d
00000270: 6ed0 05be b292 ab3e 4c91 883e 0050 733f
00000280: bf19 b2be ae3b 9cbe a6e2 73bf 7883 8fbd
00000290: 95a8 3e3f f090 5c3f a010 86be 6b9b 39bf
000002a0: 4444 e9be 7a65 41bf 5707 95bf f657 203e
000002b0: 6bc3 6abf 6408 543f dafb 183f 8257 75bf
000002c0: 4a95 883e 2780 413e 88bb 443f 7413 33bf
000002d0: d6fd 3e3f 4e0b 443e 9bdf b93c ec33 e3bc
000002e0: 9900 70be 67d8 bf3e e4d0 61bf 21cb 583f
000002f0: bbba 643f 3c5e 6d3f c6b0 9bbe 6a98 36bf
00000300: 311e 3bbe 5977 543f 2a81 b63e 4a23 1fbe
00000310: 8386 63be df7c 68be 9abc 603e 7bf2 043f
00000320: 1da3 bd3d e633 cebe 864d 783f bcfc 39bf
00000330: cf0b eabe 04a3 fbbe 4b7b 9f3e c060 54bf
00000340: 0e3b 7ebf 99aa d0be 4253 9c3d 6a5d 083e
00000350: 9124 5c3f 9af8 fd3f 6d6d 69bf c393 96bf
00000360: 3ccb 9a3d 0aa6 a33e 47fd 6c3e 9694 803e
00000370: 00ef 903f f152 41be 4b07 833f 8965 b6be
00000380: 0d2b 1c3e f9a7 c53e 4db8 90bf baf0 fc3c
00000390: 3ac5 70bf f004 bd3e 5f4f 90bf 8244 f3be
000003a0: 74c9 95bd 699a 6d3f 936d abbd 101c 8e3d
000003b0: 5cd3 153f 91c8 67be 244c dabe 1461 1cbf
000003c0: c057 be3e 8dbd f73f 05a5 5cbe 1d70 8fbd
000003d0: f000 18be 86a3 833e 0994 ea3e a39c 783e
000003e0: 0d84 3ebe a56d 133f 6d3f 493f 7111 853d
000003f0: d7fc c7be a52b 2c3e 3ae2 7d3e aa8c 353f
0.31262237 -0.29419494 0.029914971 -0.08337636 -0.23051558 0.77846134 0.139601 0.5232748
0.02907082 -0.3646203 -0.0873822 -0.08058466 1.1227528 1.2065463 0.18752259 0.1955807
0.09154566 0.25990817 -0.0709292 0.22798157 1.0733327 0.122482866 0.47053736 -0.40623862
0.15314774 0.46771824 0.35746315 0.19425733 -0.43281996 0.092769966 0.103600845 0.27598578
-0.095585726 -0.74510974 -0.062660344 0.08990965 -0.27707064 -0.1811417 -0.2842775 -0.50388944
-0.05996319 0.115797296 0.040445324 -0.08011972 -0.0018437967 -0.13981807 -0.37281874 0.08551559
-0.15178448 1.2549357 0.13352925 -0.08884512 0.05030804 0.07060258 0.10506627 0.085755624
-0.11556563 -0.004106838 0.032293405 0.06927467 -0.083281 -0.10485325 -0.11072923 0.022011945
0.037944682 0.1089845 -0.1429296 -0.13954619 -0.11550577 0.094285324 -0.08795018 0.12881492
0.051285107 -0.11968746 -0.11097122 -0.007849821 0.16880205 -0.074602686 0.07873407 0.014553918
0.1531411 0.05132897 0.09220296 0.022097113 -0.06842503 0.063682325 0.019722963 -0.05581561
0.12510617 -0.1189223 -0.16842552 0.08658042 -0.026981147 -0.062167134 0.039545972 -0.004997509
-0.18766104 0.045111246 0.16240597 0.10440976 -0.109787375 0.048303884 -0.11259091 0.067337655
-0.1067394 0.016662212 -0.09958322 0.19444276 0.027741397 -0.052475 0.037841536 -0.019702407
0.027049465 -0.120385215 0.14486036 0.08478951 -0.04506542 -0.06867251 -0.21766052 -0.07414051
0.011273085 0.080191754 0.07916751 0.12627988 0.18928999 0.06348774 0.09640694 0.163299
-0.02502332 0.07589183 0.20928185 0.08901294 0.07256695 -0.017440207 -0.20463687 0.10297671
-0.07921433 -0.119196005 0.1453846 0.0068515223 0.08686473 0.11627778 0.056851108 0.19764869
0.022764428 -0.050607044 -0.09076416 -0.1063401 -0.024001703 0.11838066 0.29443154 0.9679127
-0.17635082 0.8464389 0.8749149 0.091272235 -0.13067791 0.33510357 0.26673353 0.95043945
-0.34785268 -0.30514282 -0.95267713 -0.070074975 0.74475986 0.8615866 -0.2618456 -0.72502774
-0.45559895 -0.75545466 -1.1642865 0.15658554 -0.91704434 0.82825303 0.59759295 -0.9583665
0.266764 0.18896542 0.7684865 -0.6995156 0.7460607 0.19144937 0.022689631 -0.02773472
-0.23437728 0.3746979 -0.88209367 0.8468495 0.8934743 0.92721915 -0.30408305 -0.71326315
-0.18273236 0.8299461 0.3564542 -0.15540805 -0.22219281 -0.22703885 0.21946946 0.51932496
0.09259627 -0.4027397 0.9699329 -0.7265127 -0.45712134 -0.4914781 0.31148753 -0.8296013
-0.9930886 -0.40755156 0.07633068 0.13316885 0.85993296 1.9841492 -0.91182595 -1.1763843
0.07558295 0.31962615 0.23143493 0.25113362 1.1322937 -0.18879296 1.0236601 -0.3562434
0.15250798 0.38604715 -1.1306244 0.030876506 -0.94050944 0.3691783 -1.1274222 -0.47513205
-0.07313815 0.92813736 -0.08370509 0.06938946 0.58525634 -0.22635104 -0.42636216 -0.6108563
0.37176323 1.9354721 -0.21547325 -0.07003806 -0.14844108 0.25710696 0.45816067 0.24278502
-0.18605061 0.5758918 0.78612405 0.06497467 -0.3906009 0.16813524 0.2479333 0.7091776

lstm.bias_ih_l0 f4 [200]
00000000: 8054 48c0 bb9a 9fbd 0b57 56bd ce2f 34bf
00000010: 2a2e 8bbf 1701 4cc0 322b dabe b02e 3cc0
00000020: 9ba4 8f3d 8e45 90bf 991b 30c0 4226 36bc
00000030: 47d3 d23e d501 343f bc81 46bf bb5a d1bc
00000040: b110 41c0 77b3 ccbf 9472 48bc cbff e83d
00000050: 20a6 82bf b707 0bbf 7651 2abc 79e1 94bf
00000060: 5e3c 91bb f121 df3d 8ac0 22c0 1ac0 2ec0
00000070: ac73 123d 44f1 afbf 0b24 133d 2d86 7abd
00000080: a45d 1dc0 63f1 e0bf 5935 33c0 02bd e9be
00000090: 911a ea3d 8f11 b1bf c25a 4abf 8a94 163e
000000a0: ca09 50c0 b352 19bf 22c4 fdbe 0195 f2be
000000b0: 9e43 db3d 8275 32c0 ca00 28c0 4ede f13c
000000c0: dae8 3fc0 63b3 d63e 21ba aa3e 32af 03bd
000000d0: 9417 023e 2840 d03d db5e 783e 00d4 1fbf
000000e0: fb3b 38be cb79 3ebf 0cd6 1abf b6e8 ab3e
000000f0: 8c81 2ebf 6fc2 4cbf a55a c33d 8e56 053f
00000100: eac4 67bf 055e 20bf bbb9 0cbf 776f 073e
00000110: 17a7 57bf 0d39 2dbf 4fdc b1bd 1554 e1bc
00000120: 51a1 15bf 80b6 b53d 7037 4bbf 8733 1d3e
00000130: 61c3 7ebf 5756 23bd e06f b73e a95f 39bf
00000140: 1d26 49bf 6fe2 00bd c88f 093b 9b42 49bf
00000150: 1fcf 173e da64 36bf ee7e 183e 17a9 98bd
00000160: beba b6be fc42 6d3d 2f53 ef3d d5bf c93e
00000170: e1ed 87bf b53f 14bf c2a1 debe cff9 883d
00000180: 7476 cabd 24ea 1f3e 821d a23e b3ff 0a3e
00000190: 6397 26be 3378 2139 4718 403e 1095 a5bd
000001a0: cea6 15be 4197 17bf d242 ba3d 59dd 1d3e
000001b0: 0c4c e53d 8881 0a3d db75 7f3e d168 d83d
000001c0: 8077 6d3d 2c95 b5bc 2617 f73d b0e7 683c
000001d0: 72c4 8e3d d2ed 203e 399e ecbd b840 033e
000001e0: f1ec 0cc0 fbd2 e4bd 13fa a2bd 4236 de3d
000001f0: c445 3ebf e420 c4bd 32af 22bd 5f76 023e
00000200: ca44 24bd b053 623e d48d 993d a8cd 663d
00000210: 11ca 02be b333 cdbc 02b6 303d 00a3 f53c
00000220: 8eff 9c3d 1c66 313d 9845 cdbc 8fd4 0c3d
00000230: 00c3 b53c b0d7 b63c 2960 603d 133a 943d
00000240: 95b1 05be 16ff 833d 8d84 db3b da26 e03d
00000250: a21f 2d3d 5326 f5bd b194 29bd 0aa2 013e
00000260: 3f36 3bc0 8ec1 38be c495 ab3d af31 0ec0
00000270: 0e0a 2dc0 31a0 3abf 1d9a 38c0 8939 073e
00000280: 2ac8 60bf 725a 35c0 f3a6 51be 67e8 733e
00000290: 2bd8 58bf 6d93 22bf 0ae6 e13d 5b67 103e
000002a0: aad4 27c0 58d1 3a3e 5290 5bbf 353e 39c0
000002b0: 3f90 dbbe 5077 e4be 671f 0dc0 aa49 5cbd
000002c0: c504 37bf 83ef c83d 71b1 103e 78c4 923d
000002d0: aec3 59bf e698 47c0 92f2 1cc0 8b01 4dc0
000002e0: 1cd5 0dc0 10bc 22c0 16b9 3abf ed78 24be
000002f0: 4755 4e3e 4df4 a3bf f228 d1be 31ba 7dbf
00000300: 0d48 32c0 6363 803d 5766 2fc0 8527 8f3c
00000310: 002f 1cc0 9541 32c0 907b 443e 8a32 283e
-3.1301575 -0.07793184 -0.052329104 -0.70385444 -1.0873463 -3.1875665 -0.4261108 -2.9403496
0.07013818 -1.1271226 -2.7516844 -0.01111752 0.41176817 0.70315295 -0.7754171 -0.025555959
-3.0166438 -1.5992268 -0.012234349 0.11376914 -1.0206947 -0.54308647 -0.010395398 -1.1631309
-0.004432245 0.10895146 -2.5430017 -2.730475 0.035754845 -1.3745503 0.035923045 -0.061163116
-2.4588404 -1.7573665 -2.800131 -0.45652014 0.114308484 -1.3833483 -0.79044735 0.147051
-3.2505975 -0.59891814 -0.495637 -0.47379306 0.10706256 -2.788422 -2.6250482 0.029524948
-2.9985871 0.41933736 0.3334513 -0.0321495 0.12704307 0.10168487 0.24254934 -0.6243286
-0.1799163 -0.7440459 -0.6048286 0.33575982 -0.6816642 -0.7998418 0.095387734 0.52085197
-0.9053484 -0.6264346 -0.549709 0.13226114 -0.84239334 -0.6766518 -0.08684599 -0.027505914
-0.58449274 0.088727 -0.79381466 0.15351687 -0.99516875 -0.039877262 0.3582754 -0.7241159
-0.7857378 -0.031465944 0.0020990241 -0.78617257 0.14825104 -0.7124764 0.1489217 -0.07454126
-0.35689348 0.05792521 0.11685788 0.3940417 -1.061947 -0.5790971 -0.43482786 0.06688272
-0.098858744 0.15616661 0.31663138 0.13574104 -0.16268687 0.00015398934 0.18759261 -0.08085072
-0.14614412 -0.5921517 0.09094776 0.15416469 0.111961454 0.033814937 0.24947302 0.10566867
0.057975292 -0.022165857 0.12064962 0.014215395 0.06971063 0.15715721 -0.11553616 0.12817657
-2.2019618 -0.11173054 -0.07957854 0.108501926 -0.74325204 -0.09576586 -0.03971786 0.12740467
-0.040104665 0.22102237 0.07497755 0.056348473 -0.12772395 -0.025049066 0.043142326 0.029984951
0.07665931 0.04331027 -0.025057599 0.0343824 0.02218771 0.022319645 0.054779205 0.07237639
-0.13056023 0.06445138 0.006699151 0.1094491 0.042266496 -0.119702004 -0.04140157 0.12659469
-2.925186 -0.18042585 0.08378175 -2.2217824 -2.7037387 -0.7290068 -2.8844063 0.13205542
-0.87805426 -2.8336453 -0.20473842 0.23819123 -0.84704846 -0.63506204 0.110302046 0.14101927
-2.622355 0.18243921 -0.8576709 -2.8944218 -0.4288349 -0.44622278 -2.2050416 -0.05378119
-0.7149165 0.09811308 0.14130189 0.0716638 -0.8506421 -3.1187072 -2.4523053 -3.2032192
-2.2161322 -2.5427284 -0.7293867 -0.16061755 0.20149718 -1.280893 -0.4085155 -0.9911223
-2.7856476 0.062689565 -2.7406213 0.017474899 -2.4403687 -2.7852528 0.1918776 0.16425529

lstm.bias_hh_l0 f4 [200]
00000000: d4ff 41c0 80ef 91ba 5b5b ac3c 8bbe 3ebf
00000010: 6267 85bf 2215 42c0 30ca a7be 44b6 3ac0
00000020: 1589 4abc 4bb3 87bf cfc4 27c0 8e3e 7d3d
00000030: a61b fe3e 3f4b 4b3f 4264 6abf 62d6 033d
00000040: 374b 48c0 5715 e2bf ac48 0c3e be41 7fbd
00000050: 96c9 71bf 7b7b 40bf 5c11 25bc 03e3 72bf
00000060: 58da b83d 5a24 93bd df73 23c0 dbfa 3cc0
00000070: 6157 1f3e 1739 abbf 1139 883d 093a 37bd
00000080: de6c 15c0 081f efbf 157e 2ec0 4d60 30bf
00000090: 73f3 a33d a11b c0bf 3bc4 14bf f38c 45bc
000000a0: 492b 4dc0 618c 37bf 4127 04bf eb03 a0be
000000b0: 2196 7a3d 2985 36c0 72f0 2ac0 2caf ffbd
000000c0: 8568 39c0 2ad1 fc3e 1c95 b63d a7a7 5e3e
000000d0: 9da0 0dbe 1e2d 3ebc aeec 923e 4c34 1ebf
000000e0: 3dd5 09be cc2c 3bbf 3638 2ebf e592 093e
000000f0: fc97 3bbf 813f 42bf efcb 4d3e 41de dc3e
00000100: 92a6 61bf 606c 42bf b4cf 27bf 4fff 983d
00000110: 6d44 4dbf 3bb8 39bf 56de 2ebd cacf 8bbd
00000120: e9c9 fabe 68ff 993e ab84 1dbf 8574 8fbc
00000130: d02c 63bf f3b8 193d 2064 ad3e 1fc1 03bf
00000140: 4ed0 3abf b26d 08be 6022 e23c dd3e 45bf
00000150: 9998 c8bc 4b69 78bf be73 2d3e 71ef cbbc
00000160: c540 e1be 81eb 873d ea7a 173d b755 e93e
00000170: 6066 5bbf c276 0abf 78ba 18bf 9d2d 5b3e
00000180: 2130 6abc 64fe 3b3e 556f 963e 5a34 863d
00000190: b902 0fbe 6e2e d0bd de82 7f3e c88a c33c
000001a0: 7a5e 4c3d fcf0 21bf e0a2 553d ca0c 9fbc
000001b0: f4e3 e43d f865 793d bd6d 883e faf4 37bd
000001c0: 00b6 3abd f8a1 bd3d e892 84bc 523d ec3d
000001d0: 95a5 c53c 69ae 823e c3f8 abbd 4b3a f5bc
000001e0: 910b 14c0 cc10 37bc e34e 23bd e017 033c
000001f0: 1797 04bf 3781 0fbe 7837 923d 73fe 1c3c
00000200: 0aed e93d 0302 5d3b 70b2 b43d 7d0c d9bd
00000210: bf4e 863d f1e8 e5b9 ebcf 96bc c24f 86bd
00000220: 341e c63d e95f 043e 708c 203d fe8d d83c
00000230: bce4 d4bd ecb0 5bbd f589 d5bd ad7e ae3d
00000240: be1e f4bc f151 2ebd 99a3 693d 449a 95bd
00000250: 7442 29ba b8d8 163d 31e3 913d 4377 0c3e
00000260: d66b 46c0 4340 323c 2a30 3c3d 335d 0cc0
00000270: 6e69 34c0 f9ab 20bf 4c5e 41c0 3036 803e
00000280: e30a 61bf 82fa 2ec0 a11e 6abe 0e17 583b
00000290: 9c0d 5bbf dfc9 4cbf d0ba 97bc 9ee8 1b3e
000002a0: 603a 24c0 43dd 123e 850d 58bf 3cd0 35c0
000002b0: 88fe 03bf 852b afbe e108 0bc0 fc2b 1ebd
000002c0: 0acd 57bf a065 193c e385 5b3e 9973 a8bc
000002d0: 105d 73bf 5022 48c0 cbbb 19c0 221f 44c0
000002e0: de5a 08c0 b5ef 28c0 cbb5 07bf 78ff 58be
000002f0: d712 5c3e 750a 95bf ca0c 24bf bcd8 6abf
00000300: acbf 35c0 ccd1 563e 1ba2 23c0 ed4c 493c
00000310: eeb1 1cc0 eb4b 2ec0 00c1 0a3e 41ef 843d
-3.0312395 -0.0011133999 0.021039655 -0.74509495 -1.0422175 -3.0325398 -0.32771444 -2.9173746
-0.012361784 -1.0601591 -2.6213872 0.061827235 0.4963047 0.7941169 -0.9155923 0.032186873
-3.1295907 -1.7662762 0.13699597 -0.062318556 -0.9444822 -0.75188416 -0.01007494 -0.9487764
0.09026021 -0.07184668 -2.5539472 -2.952811 0.15560676 -1.3376797 0.066515096 -0.04473308
-2.3347697 -1.8681345 -2.7264454 -0.68896943 0.08005419 -1.5008432 -0.58111924 -0.012057531
-3.205767 -0.71698576 -0.51622397 -0.3125299 0.06117833 -2.8518775 -2.6709256 -0.12484583
-2.8970044 0.4937833 0.08915159 0.21743642 -0.138308 -0.011607436 0.28696197 -0.6179855
-0.1346025 -0.7311523 -0.6805452 0.13434942 -0.73278785 -0.7587815 0.20097326 0.43138316
-0.8814479 -0.7594662 -0.65551305 0.07470571 -0.80182534 -0.7254674 -0.042692505 -0.06826742
-0.4898217 0.30077672 -0.6153056 -0.017511616 -0.88740253 0.037529897 0.33865452 -0.51466554
-0.729741 -0.13323095 0.027604282 -0.77049047 -0.024486827 -0.97035664 0.16938683 -0.024894448
-0.43994728 0.06636716 0.036982454 0.45573208 -0.85703087 -0.5408746 -0.5965953 0.21404119
-0.014293701 0.18358761 0.29381815 0.06552954 -0.13965882 -0.10165106 0.24952266 0.023869887
0.049894787 -0.6325834 0.052157283 -0.019415278 0.11176291 0.06088826 0.26646224 -0.044911362
-0.045583725 0.09259409 -0.016183332 0.115351334 0.024126807 0.2552369 -0.08397057 -0.029935023
-2.313206 -0.011173438 -0.039870154 0.008001298 -0.51793045 -0.14014135 0.07139486 0.00958215
0.11422165 0.0033723123 0.08823097 -0.10598085 0.065579884 -0.0004385184 -0.01840969 -0.06558181
0.096737295 0.12927212 0.03919643 0.026434895 -0.1039519 -0.053635523 -0.10426704 0.08520255
-0.029799815 -0.042558614 0.057040785 -0.073048145 -0.00064567407 0.036827773 0.071234114 0.1371737
-3.1003318 0.010879579 0.04594437 -2.1931884 -2.818935 -0.6276241 -3.0213804 0.25041342
-0.87907237 -2.7340398 -0.22863247 0.0032972726 -0.8556764 -0.7999553 -0.018521696 0.15225455
-2.566063 0.14342217 -0.8439563 -2.8408346 -0.5156026 -0.3421289 -2.172417 -0.038616166
-0.8429724 0.009362608 0.21437792 -0.020562934 -0.9506388 -3.1270943 -2.402087 -3.0644002
-2.130546 -2.6396306 -0.5301177 -0.21191204 0.21491562 -1.1643816 -0.64082015 -0.9173696
-2.8398237 0.20978469 -2.5567691 0.012286407 -2.44836 -2.7233837 0.13550186 0.064909466

linear.weight f4 [1, 50]
00000000: d7f6 1f41 9204 0f41 04ce 29c1 8361 c140
00000010: b3a1 1141 3b5c 2841 0ca9 16c1 2186 3141
00000020: e561 2c41 d803 ce40 7feb 1bc1 3e02 1ac1
00000030: 704c aec0 c428 e93f ea79 1e41 870b 2741
00000040: d2c5 19c1 712c 14c1 c8c6 19c1 2552 12c1
00000050: 77a5 2641 edde 1c41 1125 1ac1 c650 cd40
00000060: 0783 1d41 400e 0ec1 5fa8 2f41 bdae 1e41
00000070: 33a3 d340 e326 17c1 a132 2641 da09 2941
00000080: caae 1a41 9037 31c1 2418 21c1 2034 1a41
00000090: df9e 1ec1 8f1b e440 d36b 1241 29c1 bd40
000000a0: d938 28c1 7870 fcc0 48e2 17c1 183d 1e41
000000b0: 9c5e 1941 0ebd 1cc1 8947 2dc1 8bbf 19c1
000000c0: 88e3 1841 3e5c ac3f
9.997764 8.938616 -10.612797 6.0431533 9.101977 10.522517 -9.416271 11.095246
10.7739 6.437969 -9.744994 -9.625547 -5.4468307 1.8215566 9.904764 10.440314
-9.610796 -9.26085 -9.611031 -9.145055 10.415397 9.804425 -9.634049 6.41611
9.844489 -8.878479 10.978606 9.917661 6.613672 -9.446994 10.387361 10.564905
9.667673 -11.076065 -10.068394 9.637726 -9.913787 7.128364 9.151324 5.929829
-10.513879 -7.888729 -9.492744 9.889915 9.585598 -9.796156 -10.829965 -9.609263
9.55555 1.346565
