examples/lenet/mlp_cifar10.pth (torch, 250195 bytes, 10 tensors)

conv1.weight f4 [6, 1, 5, 5]
0	0xbeb07a9a	-0.34468538
1	0xbdc070cd	-0.09396515
2	0xbc67c909	-0.014147052
3	0xbc9130f4	-0.017723538
4	0xbefa262a	-0.48857242
5	0x3ef9203e	0.4865741
6	0x3f7c9861	0.9867001
7	0x3f99b412	1.2008078
8	0x3f2056e7	0.626326
9	0x3e90e14a	0.28296882
10	0x3ecea983	0.40363702
11	0x3e865ccb	0.2624267
12	0x3f042b40	0.51628494
13	0x3ec721d2	0.3889299
14	0x3efa62d5	0.48903528
15	0xbea6b794	-0.32561934
16	0xbf31db4b	-0.6947524
17	0xbf8d7ae0	-1.1053123
18	0xbf17f626	-0.5935997
19	0xbe6ee03f	-0.2332773
20	0xbe52a051	-0.20568968
21	0xbeaa8de4	-0.3331138
22	0xbf52da39	-0.8236423
23	0xbf0b08f6	-0.5431055
24	0x3bc3d588	0.0059763826
25	0xbeabd91b	-0.33564076
26	0x3c9f6a58	0.019459888
27	0xbe260709	-0.16213621
28	0x3e36c7da	0.17849675
29	0xbce4f07a	-0.0279467
30	0xbe901d9f	-0.281476
31	0xbe1c3acc	-0.15256804
32	0xbe8959a1	-0.26826194
33	0xbd31d192	-0.043412752
34	0x3d93a147	0.072084956
35	0xbe1ca1ff	-0.15296172
36	0xbd42d230	-0.04756373
37	0x3c68affb	0.014202113
38	0xbe20552f	-0.15657495
39	0x3e6ac6a7	0.22927342
40	0xbe38b855	-0.18039067
41	0xbe682d76	-0.22673592
42	0xbea449c9	-0.32087544
43	0xbc65fa7d	-0.014036772
44	0xbde65ba5	-0.112479486
45	0xbe5ccb0a	-0.21561828
46	0xbeb282f2	-0.34865528
47	0xbe8a194f	-0.26972434
48	0xbe8f6d95	-0.28013292
49	0xbe6a84e4	-0.22902256
50	0xbdda6be8	-0.10665113
51	0x3f06de21	0.5268269
52	0x3db9d593	0.09073939
53	0xbe81cfed	-0.25353947
54	0xbeb3384b	-0.35003886
55	0xbda12fe1	-0.0787046
56	0x3f49e852	0.7887012
57	0x3eb7c6a6	0.35893744
58	0xbf1994c1	-0.59992605
59	0xbf2c94e2	-0.6741468
60	0xbcd958cd	-0.026531601
61	0x3f961620	1.1725502
62	0x3efae91c	0.49005973
63	0xbf3d6a66	-0.73990476
64	0xbf561b37	-0.83635277
65	0xbea08a09	-0.31355312
66	0x3f770be8	0.9650254
67	0x3f0ad058	0.5422416
68	0xbf33f855	-0.703008
69	0xbf058834	-0.52160954
70	0xbe4414c6	-0.1914855
71	0x3f2a8b21	0.66618544
72	0x3e1bc0b5	0.1521023
73	0xbeffaba8	-0.4993565
74	0x3cc455e7	0.023966743
75	0x3d92d919	0.07170314
76	0x3e5e8b26	0.21732768
77	0x3dd3f8b9	0.103501745
78	0x3de0ef27	0.10983115
79	0xbdecb49b	-0.11557885
80	0x3e4e1859	0.20126475
81	0x3eb81786	0.35955447
82	0x3e085871	0.13314988
83	0xbd1d5e39	-0.038419936
84	0x3c9362a5	0.017991373
85	0x3e60f6c9	0.21969141
86	0x3e8ec5fb	0.27885422
87	0x3e9da98d	0.3079342
88	0x3e93870f	0.2881398
89	0x3e4d83d5	0.20069821
90	0x3e8d1bf7	0.27560398
91	0x3e5cd96b	0.21567313
92	0x3e8fe18f	0.28101775
93	0x3ea4b0ed	0.32166234
94	0x3d6fda0b	0.05855755
95	0xbdbde392	-0.09271921
96	0x3e22baae	0.15891525
97	0x3e29977e	0.16561696
98	0x3dfa677e	0.12226771
99	0x3e0bd455	0.13655217
100	0x3e538bae	0.20658752
101	0xbc0dd934	-0.008657742
102	0x3e7ce29b	0.24695818
103	0xbd2ae089	-0.04171804
104	0xbe1df80e	-0.15426657
105	0x3e2e41a5	0.17017229
106	0xbcbc4120	-0.022980273
107	0x3d93014a	0.0717798
108	0xbe76975d	-0.24081178
109	0xbe1b12fd	-0.15143962
110	0x3e11b1f2	0.14228037
111	0x3e1b212d	0.15149374
112	0xbe386ffa	-0.18011466
113	0xbe042c72	-0.1290758
114	0xbde88f13	-0.11355414
115	0x3dcfad5c	0.101404876
116	0xbe199314	-0.14997512
117	0x3d9ac51d	0.075571276
118	0xbd78325b	-0.060594898
119	0xbdb1f936	-0.08690111
120	0xbe5392a9	-0.20661415
121	0xbe835570	-0.2565112
122	0xbed5b65f	-0.417407
123	0xbe6e39eb	-0.23264281
124	0xbe3a0c26	-0.18168697
125	0x3e271665	0.16317137
126	0x3d995b3d	0.074881054
127	0xbdfc541f	-0.12320732
128	0x3e0e1378	0.13874614
129	0xbe37cb9a	-0.17948762
130	0x3cc00dda	0.023444105
131	0xbdc70b10	-0.09718907
132	0xbbffbb09	-0.0078042787
133	0x3da27b86	0.079337165
134	0xbe3b43af	-0.18287538
135	0xbd882545	-0.066477336
136	0x3dfbcd2d	0.122949935
137	0x3d9ee60f	0.07758724
138	0xbdeb8152	-0.11499275
139	0xbe4df444	-0.20112711
140	0x3e5d2aa7	0.21598302
141	0x3d851b94	0.06499401
142	0x3da2fb2f	0.07958066
143	0xbe173ab1	-0.14768483
144	0xbe5116d3	-0.20418863
145	0x3e628d18	0.22124135
146	0x3e06db66	0.13169631
147	0x3d01532b	0.031573456
148	0xbdafdc93	-0.08586993
149	0x3da30be0	0.07961249

conv1.bias f4 [6]
0	0xbe36d00d	-0.17852803
1	0xbe74dcea	-0.23912397
2	0xbcd44550	-0.025911957
3	0x3dfce361	0.123480566
4	0x3e010a8c	0.1260168
5	0x3f0f8a2f	0.56070226

conv2.weight f4 [16, 6, 5, 5]
0	0x3d96a3b4	0.07355443
1	0xbd9a3eb3	-0.0753149
2	0xbdf2dedb	-0.118589126
3	0xbd7072d2	-0.05870325
4	0xbd1ca99e	-0.038247697
5	0xbd1aadf0	-0.037763536
6	0x3cf761f3	0.030198073
7	0xbdac01cd	-0.08398781
8	0xbe211870	-0.15731978
9	0xbdc31f3b	-0.09527441
10	0xbd3ea00f	-0.046539363
11	0xbc3baa8c	-0.011454236
12	0x3d01acab	0.03165881
13	0xbda3791d	-0.07982085
14	0xbd9b3abc	-0.07579562
15	0xbccbcf08	-0.024878994
16	0x3c4d0901	0.012514354
17	0x3cfc8cf0	0.030828923
18	0x3c5f9578	0.013646476
19	0x3d6025fd	0.05472373
20	0x3da49e69	0.08038027
21	0x3d7aec0f	0.06126028
22	0x3e755bab	0.2396075
23	0x3e569ce9	0.20958294
24	0x3e0597fa	0.13046256
25	0xbda6e0b8	-0.081483305
26	0xbe05e801	-0.13076784
27	0xbd905e42	-0.07049228
28	0xbcc91286	-0.024544965
29	0xbd248f0c	-0.040175483
30	0x3d1b9cb5	0.037991244
31	0x3d5a9e4b	0.053373616
32	0xbd0de2bc	-0.03464006
33	0xbdea4a4f	-0.114399545
34	0x3d32735f	0.043567058
35	0x3df3a85a	0.11897345
36	0x3e17e170	0.14832091
37	0xbb7dac80	-0.0038707554
38	0x3c155f65	0.009116982
39	0x3de0898b	0.10963734
40	0x3df94f61	0.121733434
41	0x3e288220	0.16455889
42	0x3e461062	0.19342187
43	0x3e425239	0.18976678
44	0x3dbd74aa	0.092507675
45	0xbc99b6ff	-0.018764017
46	0x3e6197fc	0.22030634
47	0x3e68595d	0.2269034
48	0x3dc08cc2	0.094018474
49	0x3e51d0d9	0.20489825
50	0x3d1e28aa	0.038613
51	0x3d5d2fd6	0.054000698
52	0xbc587222	-0.013210805
53	0x3df7c57f	0.12098216
54	0x3e0a8889	0.13528647
55	0x3e12383c	0.14279264
56	0x3cbc945b	0.02301996
57	0x3d9c3814	0.076278836
58	0xbc89d16f	-0.016823499
59	0x3d24562d	0.040121246
60	0x3e1228ca	0.14273372
61	0xbc8966ad	-0.016772592
62	0xbce5c7a7	-0.028049303
63	0x3d9b30a1	0.075776346
64	0x3dbea66d	0.09309087
65	0x3c5c88d1	0.013460354
66	0x3d0b66ea	0.034033693
67	0xbbc76bc5	-0.006085845
68	0x3d3f443f	0.046695944
69	0x3d964eec	0.07339272
70	0x3db4770c	0.08811769
71	0x3cdb88f5	0.026798705
72	0x3d8d8ce6	0.0691164
73	0x3d663dd3	0.056211304
74	0x3e2af442	0.1669474
75	0x3dc0e792	0.094191685
76	0x3dbdbec9	0.09264905
77	0x3d86b457	0.06577366
78	0x3cfe13a9	0.031015234
79	0xbdb90157	-0.09033459
80	0x3d85da0d	0.065357305
81	0x3ccf22f2	0.025285218
82	0x3d4c17f2	0.049827524
83	0xbca26802	-0.019824985
84	0xbde76d93	-0.113001965
85	0xbc3292ff	-0.010899304
86	0x3e10ad70	0.14128661
87	0x3e13fe14	0.14452392
88	0x3d5cfc26	0.053951405
89	0xbe18b0ab	-0.14911143
90	0xbd513d79	-0.051084016
91	0x3e113931	0.14181973
92	0x3c40b4a7	0.011761821
93	0xbd12a916	-0.035805784
94	0xbdb7f9b1	-0.08983172
95	0x3d4f99c3	0.050683748
96	0x3e195cf1	0.1497686
97	0x3e0172b4	0.12641412
98	0x3cebcbe6	0.02878375
99	0xbcc79306	-0.024362098
100	0xbe10ed75	-0.14153083
101	0xbc1a847b	-0.009431
102	0xbe18415f	-0.14868687
103	0x3cab1523	0.020884102
104	0x3d42ba37	0.04754087
105	0x3c5bd988	0.013418563
106	0xbd4bdb96	-0.04976996
107	0x3b4c125d	0.0031138875
108	0xbc9567cd	-0.018237973
109	0x3bc2d9fa	0.005946395
110	0xbd389405	-0.045063037
111	0x3c51b1b2	0.0127987135
112	0xbd9e21c0	-0.07721281
113	0xbd7d146f	-0.061787065
114	0x3d7dee76	0.061994992
115	0x3da7cd99	0.081935115
116	0xbc8e756d	-0.017389977
117	0x3dbd4773	0.092421435
118	0x3c927829	0.017879562
119	0x3d97e5be	0.07416867
120	0x3d55eef0	0.05222982
121	0x3c558f5e	0.01303467
122	0x3b631324	0.003464886
123	0x3d9c03ff	0.0761795
124	0x3dce9ce9	0.10088522
125	0xbe0d21cc	-0.13782424
126	0xbe291ca9	-0.16514839
127	0xbd8b75ff	-0.06809615
128	0xbd63b254	-0.05558999
129	0xbd8fcaf1	-0.0702113
130	0xbe3ba045	-0.18322857
131	0xbdc375ed	-0.09543977
132	0xbd99b391	-0.07504953
133	0xbe0274fb	-0.12739937
134	0x3aaf832a	0.001339053
135	0xbd0e1143	-0.03468443
136	0xbe3b2f18	-0.18279684
137	0xbca5832b	-0.020204147
138	0xbe0e241f	-0.13880967
139	0xbca41f2c	-0.020034395
140	0xbd16f5b7	-0.036855426
141	0xbe2c9730	-0.16854548
142	0xbe124346	-0.14283475
143	0xbd929d7a	-0.071589425
144	0xbc2199a4	-0.009863291
145	0x3bfdb9e6	0.007743108
146	0xbd90687f	-0.07051181
147	0xbdeb5395	-0.114905514
148	0x3abfae3b	0.0014624068
149	0xbcaf4638	-0.021395788
150	0x3e2859d8	0.16440523
151	0x3e311328	0.17292464
152	0x3e1547ad	0.14578123
153	0x3df5fd9b	0.12011262
154	0x3e0b4f59	0.13604487
155	0x3d11a81e	0.03556072
156	0x3ccdf8e9	0.025143104
157	0xbd70d4de	-0.058796756
158	0xbddf6fcf	-0.10909998
159	0x3ca699fa	0.020337094
160	0xbcea8401	-0.028627397
161	0xba92d43a	-0.0011202164
162	0x3d7bab81	0.061442856
163	0xbd76cc10	-0.060253203
164	0x3dadd85f	0.08488535
165	0xbc679418	-0.014134429
166	0x3d32e67f	0.04367685
167	0x3db3d6ee	0.08781229
168	0x3ca6c83c	0.020359151
169	0xbd77ebac	-0.06052749
170	0x3e4f0a28	0.20218718
171	0x3d911476	0.07083981
172	0x3de9ac8f	0.11409866
173	0x3db720d3	0.089418076
174	0xba8cf374	-0.0010753707
175	0xbd7ed646	-0.062216066
176	0xbddebe3c	-0.10876128
177	0xbd62e639	-0.05539534
178	0xbe00f76b	-0.12594382
179	0x3a356fc1	0.00069212547
180	0xbe30d42a	-0.17268434
181	0xbe2c3944	-0.1681872
182	0xbdc88430	-0.09790838
183	0xbd5a281b	-0.053260904
184	0x3db2243f	0.0869832
185	0xbe120866	-0.14261016
186	0xbd21a447	-0.039463308
187	0xbdd63d17	-0.10460871
188	0x3d4d2f6a	0.050094046
189	0x3c150721	0.009095938
190	0xbd34e252	-0.04416115
191	0x3c19e014	0.009391803
192	0x3d166256	0.036714874
193	0x3dc55f59	0.09637327
194	0x3e0e19bb	0.13877003
195	0x3e0aeb13	0.13566236
196	0x3dcc0837	0.09962504
197	0x3dcced4e	0.100062
198	0x3d656415	0.05600365
199	0x3deb39d5	0.1148564
200	0xbdbd10cc	-0.092317194
201	0xbe61ebdf	-0.22062634
202	0xbe5ab78b	-0.21359079
203	0xbe29f5e5	-0.16597708
204	0xbe620b82	-0.22074702
205	0xbe70e101	-0.23523332
206	0xbe217cd9	-0.15770282
207	0xbe3bfcec	-0.18358201
208	0xbe26feff	-0.16308211
209	0xbe0009ea	-0.12503782
210	0xbe6febc4	-0.23429781
211	0xbdfd6451	-0.123726495
212	0xbe2028ff	-0.15640639
213	0xbe083cc4	-0.1330443
214	0xbe5d5dfd	-0.21617885
215	0xbe222ee0	-0.15838194
216	0xbe2602a9	-0.16211952
217	0xbe42bdce	-0.19017717
218	0xbe53eb2e	-0.20695183
219	0xbe01c994	-0.12674552
220	0xbe52e927	-0.20596753
221	0xbe42a49c	-0.19008106
222	0xbe76375d	-0.24044557
223	0xbdeee02b	-0.116638504
224	0xbd36bcec	-0.044613764
225	0x3ec03291	0.3753858
226	0x3de468ad	0.11152778
227	0x3e46213b	0.19348614
228	0x3e1d9c8f	0.15391754
229	0x3de210ba	0.110383466
230	0x3e36bb7e	0.1784496
231	0xbd40c139	-0.04705927
232	0x3c3f0d9a	0.011660958
233	0xbd40f75f	-0.04711091
234	0xbd4afab9	-0.049555514
235	0x3e2d9c97	0.16954266
236	0x3df03313	0.11728492
237	0x3d90b7fb	0.070663415
238	0xbde955dd	-0.1139333
239	0xbdbb30b8	-0.09140152
240	0x3e3bb843	0.18332009
241	0x3a939873	0.0011260643
242	0xbb9f3951	-0.0048591276
243	0xbdc03ce8	-0.09386617
244	0xbe1308e1	-0.14358856
245	0xbd25196c	-0.040307447
246	0xbda5921e	-0.0808451
247	0xbdf970e4	-0.12179735
248	0xbe028c43	-0.12748818
249	0xbe1f2012	-0.15539578
250	0xbde717c7	-0.11283832
251	0xbd2caf89	-0.04215959
252	0x3d9b6453	0.07587495
253	0xbc9d4eaf	-0.019202558
254	0xbc25bc1b	-0.010115649
255	0xbdaecc88	-0.08535105

conv2.bias f4 [16]
0	0xbe8cb989	-0.27485302
1	0x3d98cd8f	0.07461082
2	0x3cd9e709	0.026599424
3	0x3e86e4c5	0.26346412
4	0xbd83519d	-0.06412051
5	0x3d1b028e	0.037844233
6	0xbbc16085	-0.0059013986
7	0xbe0c9f64	-0.13732678
8	0xbdd65f10	-0.104673505
9	0x3f10153e	0.56282413
10	0x3d873abe	0.06603001
11	0xbc0aa2ff	-0.008461713
12	0xbd313ce8	-0.043270975
13	0x3dbad268	0.09122163
14	0xbd691b6e	-0.056910925
15	0xbd5ced5d	-0.053937305

fc1.weight f4 [120, 400]
0	0x3d03ad9f	0.032148
1	0x3d42ebd5	0.04758819
2	0x3c249dc8	0.010047384
3	0xbcd1c7a7	-0.025607897
4	0xbd1b74a2	-0.037953027
5	0xbd244fc5	-0.040115137
6	0xbcf8cc01	-0.030370714
7	0x3d0c4dc3	0.034253847
8	0x3c96e6f3	0.018420672
9	0xbba0f058	-0.0049114637
10	0xbbc72a3b	-0.0060780323
11	0x3c67f954	0.014158566
12	0xbd5c146b	-0.05373041
13	0x3d205a18	0.03914842
14	0x3c89ebae	0.016836014
15	0x3d074a1c	0.03302966
16	0x3d68239e	0.056674592
17	0xbc8d7bf9	-0.017271029
18	0x3a344d7d	0.0006878002
19	0xbd830035	-0.06396524
20	0x3c5a101b	0.013309504
21	0xbcda9c07	-0.026685728
22	0x3cf48ac5	0.029851327
23	0xbd2ade55	-0.04171594
24	0xbd59b328	-0.053149372
25	0xba2418e7	-0.0006259814
26	0x3cebd160	0.028786361
27	0xbcafc6b7	-0.02145706
28	0xbc920b80	-0.01782775
29	0xbd2fba03	-0.042902004
30	0x3d37f9ed	0.044916082
31	0xbb493b5e	-0.0030705552
32	0xbc054988	-0.008135207
33	0xbce5c29e	-0.028046902
34	0x3b9d1f09	0.0047949594
35	0xbd294fe5	-0.04133596
36	0xbc6b4897	-0.0143605685
37	0x3c34e5fb	0.01104116
38	0x3cd232c1	0.025658967
39	0xbb30ca6a	-0.0026976117
40	0x3a5c634a	0.0008407129
41	0xbd4bd17d	-0.04976033
42	0xbd100b33	-0.03516693
43	0xbc2fe14b	-0.010734866
44	0x3c5b4ff6	0.013385763
45	0xbd862d3a	-0.06551595
46	0x3cded07e	0.027199026
47	0x3ca3db71	0.020002099
48	0x3d2918a2	0.041283257
49	0xbce79eb6	-0.028273921
50	0xbc347eb8	-0.01101654
51	0x3bf89342	0.007585914
52	0x3d235d08	0.039883643
53	0xbce34f9d	-0.027747924
54	0x3baed245	0.0053351247
55	0xbb5c858c	-0.0033648936
56	0x3c2cbd03	0.010543111
57	0x3aec1204	0.001801074
58	0x3b40d571	0.0029424096
59	0x3d215cb8	0.039395064
60	0xbd141307	-0.03615096
61	0xbd20720a	-0.039171256
62	0xbd11b001	-0.03556824
63	0x3d5b6a3e	0.053568117
64	0x3d00049c	0.031254396
65	0x3d31c181	0.04339743
66	0xbb9308f0	-0.0044871494
67	0x3c71637e	0.014733193
68	0xbb6ad1c2	-0.0035830592
69	0x3b4b9d35	0.0031069044
70	0x3d1c9158	0.038224548
71	0x3cae4cbe	0.021276828
72	0x3d26de05	0.040739078
73	0x3d08cde2	0.03339947
74	0xbcf545f6	-0.029940587
75	0x3cb3e59c	0.021960072
76	0x3ca9930e	0.020700004
77	0x3d196385	0.037448425
78	0xbd211038	-0.039322108
79	0x3bafd3d5	0.0053658285
80	0x3c4b0687	0.012391693
81	0xbd241c4b	-0.040066045
82	0xbce309a5	-0.02771456
83	0x3c18b396	0.00932016
84	0xbcd5fb2a	-0.02612074
85	0xbbb8b123	-0.0056363507
86	0x3d27b3b3	0.04094286
87	0xbcbd5e84	-0.023116358
88	0x3bb1d5be	0.0054270914
89	0x3b90ef7c	0.00442308
90	0xbd7d5dd3	-0.061857056
91	0xbd4fdeb8	-0.05074951
92	0xbc684698	-0.014176987
93	0xbd361d76	-0.04446169
94	0xbb5d43af	-0.0033762266
95	0xbc3d59ef	-0.011557086
96	0xbcc69851	-0.024242552
97	0xbca51c45	-0.020155082
98	0x3bba26ac	0.0056808796
99	0xbd03d7e5	-0.032188315
100	0xbca18448	-0.019716397
101	0x3d18ab57	0.037272777
102	0xbd4c9be9	-0.049953375
103	0xbb0bbfba	-0.0021323995
104	0xbd6fd8da	-0.058556415
105	0xbd314aee	-0.04328435
106	0x3ca513f4	0.020151116
107	0xbd222428	-0.039585263
108	0xbcbb5aac	-0.022870384
109	0xbc56ec57	-0.013117871
110	0xbc96a374	-0.018388487
111	0x3cadf2b0	0.021233886
112	0x3d32ef7a	0.043685414
113	0xbc66e895	-0.014093538
114	0xbae1508b	-0.0017190141
115	0x3d773c0f	0.06036001
116	0xbd4f0341	-0.050540213
117	0xbd31afa5	-0.0433804
118	0xbbe1ac7a	-0.006887016
119	0xbc9fce6d	-0.019507611
120	0x3c28d106	0.010303741
121	0xbcc068f0	-0.023487538
122	0x3cba20b7	0.022720678
123	0xbc7c74ef	-0.0154087385
124	0xbcb0b0f7	-0.021568758
125	0x3d54be2c	0.051939175
126	0x3a864190	0.0010242928
127	0xbc23a140	-0.009987175
128	0x3d2af0fb	0.041733723
129	0x3bca7225	0.006178158
130	0x3d0c53e4	0.03425969
131	0x3d433898	0.047661394
132	0xbd55324a	-0.052049913
133	0xbd41a1b9	-0.04727337
134	0xbcccbd36	-0.024992567
135	0x3d1ad863	0.03780402
136	0xbd02430f	-0.031802233
137	0x3ce6d0d0	0.028175741
138	0xbb305c20	-0.002691038
139	0xb961cc65	-0.00021533815
140	0x3d905c71	0.07048882
141	0x3cd25808	0.025676742
142	0x3cc5af25	0.024131367
143	0xba0ece58	-0.0005447618
144	0xbc6f64fe	-0.014611481
145	0x3de318e7	0.11088734
146	0x3d41c591	0.047307555
147	0x3cb85768	0.022502616
148	0xbd34019e	-0.043946855
149	0x3cf9f3cb	0.030511757
150	0x3c9dc9f2	0.019261334
151	0xbcb51037	-0.022102458
152	0xbcb66268	-0.02226372
153	0xbb80bdfd	-0.0039288984
154	0xbc821d17	-0.015883012
155	0x3cded8d6	0.027203005
156	0xbd2c59e4	-0.042077914
157	0x3d0ca646	0.03433826
158	0xbc97d5ec	-0.018534623
159	0xbd144124	-0.036194935
160	0x3ced9dc6	0.029005896
161	0x3cdb55c1	0.02677429
162	0x3d233c33	0.039852332
163	0x3ce2bc72	0.027677748
164	0xbc950da3	-0.018194979
165	0xbd4a8bd0	-0.04944974
166	0xbb057b3f	-0.002036765
167	0xbb022295	-0.0019857038
168	0x3ceed736	0.029155355
169	0x3b538aa8	0.003227869
170	0x3aeef636	0.0018231336
171	0x3d1d0427	0.038334038
172	0xbc70846a	-0.0146800075
173	0xbd28c3b4	-0.041202262
174	0x3d08f68e	0.033438258
175	0xbd2982d8	-0.041384548
176	0x3b0be7ac	0.0021347804
177	0x3d080bbb	0.033214312
178	0xbc06e97c	-0.008234378
179	0xbb1ee1c9	-0.0024243465
180	0xbcd4a96f	-0.025959698
181	0x3cff0fb7	0.031135423
182	0x3ca4e50a	0.020128746
183	0x3d14faba	0.036371924
184	0x3d469a0e	0.04848676
185	0x3cb581ad	0.02215656
186	0x3d8308a1	0.0639813
187	0xbd34b560	-0.044118285
188	0x3c1b3cd0	0.009474948
189	0x3bc46c69	0.005994369
190	0x3ca839a2	0.020535294
191	0xbcfefd67	-0.031126691
192	0x3cf176ac	0.029475532
193	0xbd0d545d	-0.034504283
194	0x3bb1389c	0.0054083597
195	0x3cfccb23	0.030858582
196	0x3d3f7a9f	0.0467478
197	0xbd3b15ff	-0.045675274
198	0x3bebce31	0.007196211
199	0xbd0dfd8d	-0.034665633
200	0x3d5c4150	0.053773224
201	0xbbb21994	-0.005435178
202	0x3c4b43af	0.012406274
203	0xbd1199f1	-0.0355472
204	0xbc470230	-0.012146518
205	0xbc8a198e	-0.016857889
206	0x3c9a045e	0.01880091
207	0xbd2fe0f1	-0.04293913
208	0x3b8aa7fe	0.004231452
209	0xbd04d4cb	-0.032429498
210	0xbd049324	-0.032366887
211	0x3d2352ae	0.03987377
212	0xbb201ac7	-0.0024430023
213	0x3c8f78e6	0.017513704
214	0x3c72605e	0.014793484
215	0xbcdc6984	-0.026905783
216	0x3bbced19	0.005765569
217	0x3d39cc56	0.045360886
218	0x3c977ed2	0.01849309
219	0xbbb5a580	-0.005543411
220	0xbcbfa4a8	-0.023393944
221	0x3d60051b	0.05469237
222	0xbd018cec	-0.031628534
223	0xbbdc40c2	-0.006721587
224	0x3c53b5ec	0.0129217915
225	0xbcfe67ae	-0.031055298
226	0x3b6c3b11	0.0036045949
227	0xbd123f7e	-0.035705082
228	0x3c4d6965	0.012537335
229	0xbd337fca	-0.04382304
230	0xbc009d55	-0.007850011
231	0xbcde9b71	-0.02717373
232	0x3c914534	0.017733194
233	0x3cabb4a3	0.020960158
234	0x3cdec136	0.02719174
235	0xbd48e001	-0.04904175
236	0xbd2fc3cc	-0.042911336
237	0x3d4a6d51	0.04942066
238	0xbcb0e6b6	-0.021594387
239	0xbd137a7d	-0.036005486
240	0xbb6d9e95	-0.0036257852
241	0xbb6a0c01	-0.0035712721
242	0x3d76d7a0	0.06026423
243	0x3ca0e023	0.019638127
244	0xbd3411ea	-0.043962397
245	0x3b84c561	0.0040518497
246	0xbcdef4d2	-0.027216349
247	0x3c1bc451	0.009507255
248	0x3c3a130f	0.011357083
249	0x3d665208	0.056230575
250	0xbcc039ee	-0.023465123
251	0xbc6f2573	-0.014596331
252	0xbc5c2c2b	-0.013438265
253	0x3cf8ef6a	0.030387599
254	0xbaa718de	-0.00127485
255	0x3c961a4d	0.018323088

fc1.bias f4 [120]
0	0x3d2efd9e	0.042722337
1	0x3cdfc34d	0.027314806
2	0xbdca89f3	-0.09889593
3	0x3d2dc776	0.04242655
4	0x3d013bab	0.031551044
5	0x3ce05294	0.027383126
6	0x3d093910	0.033501685
7	0x3d84cc82	0.06484319
8	0x3c97d735	0.018535236
9	0x3de0cab7	0.10976165
10	0xbd20d76e	-0.03926795
11	0x3b973840	0.00461486
12	0x3da64b92	0.08119883
13	0x3cc9b6db	0.024623325
14	0xbd863690	-0.06553376
15	0x3b86bbf5	0.0041117617
16	0x3d6a3446	0.057178758
17	0x3d3cc01a	0.04608164
18	0xbd48a42c	-0.04898469
19	0xbd4f86f8	-0.050665826
20	0xbd1849a0	-0.03717959
21	0xbd157c40	-0.036495447
22	0xbd934115	-0.07190148
23	0xbd2cd0b1	-0.04219121
24	0x3dc3f64b	0.09568461
25	0x3c7dd07b	0.0154916
26	0x3cef50c3	0.029213315
27	0xbd4fcc64	-0.05073203
28	0x3dea0ede	0.11428617
29	0x3d2fb68f	0.04289871
30	0xbd3decbd	-0.04636835
31	0xbd705a5f	-0.058679935
32	0x3c5c36de	0.013440816
33	0xbb6a1d57	-0.0035723054
34	0xbc0e2c93	-0.0086776195
35	0xbd46640d	-0.04843526
36	0x3c2a7ef6	0.010406246
37	0x3c6c398f	0.01441802
38	0x3d5f89b6	0.05457469
39	0xbc632b9d	-0.013865379
40	0x3d941b60	0.07231784
41	0x3e2f2632	0.17104414
42	0xbbc16355	-0.005901734
43	0x3d268196	0.040650927
44	0xbdca4e28	-0.09878188
45	0x3d6857d4	0.056724384
46	0x3cadec66	0.021230888
47	0x3d7e4cdb	0.062085014
48	0xbcd3a60c	-0.025836013
49	0xbd4eabe5	-0.0504569
50	0x3cce8657	0.025210543
51	0xbb42e099	-0.0029735921
52	0x3bc13cf5	0.005897159
53	0x3a9a9f7f	0.0011796801
54	0x3bcb0b6b	0.0061964295
55	0x3d2475c9	0.04015139
56	0x3d9bdaef	0.07610118
57	0xbd668ffc	-0.056289658
58	0xbd19a079	-0.037506554
59	0xbc62382b	-0.013807337
60	0x3d3b0ded	0.045667578
61	0xbcff5520	-0.03116852
62	0xbcf9f36c	-0.03051158
63	0x3e1d87ba	0.15383807
64	0x3c13cd76	0.009021154
65	0xbc2ad46b	-0.010426621
66	0x38f58891	0.00011707948
67	0x3d17431c	0.036929235
68	0xbd1a4b7d	-0.037669647
69	0xbd4eb3ed	-0.05046456
70	0xbc8eabff	-0.017415999
71	0x3da32e25	0.07967786
72	0x3d1cd9db	0.0382937
73	0x3ca1c6cc	0.019748114
74	0x3d5b8cf6	0.053601228
75	0xbd2d1d8d	-0.04226451
76	0xbc1af7e1	-0.009458513
77	0x3dcaa58d	0.098948576
78	0xbd9525f2	-0.07282628
79	0x3cfab34f	0.03060308
80	0xbc8f114b	-0.0174643
81	0x3c5b8508	0.013398416
82	0x3d1d957d	0.03847264
83	0x3c9c89b7	0.019108636
84	0xbc2c3386	-0.010510331
85	0x3c8d181a	0.017223407
86	0x3d1bb26e	0.03801196
87	0xbca6c1be	-0.020356055
88	0xbd0b0ac3	-0.03394581
89	0xbd063453	-0.032764744
90	0x3db194b2	0.086709395
91	0x3c315456	0.01082333
92	0x3d3b97fb	0.045799237
93	0x3d2affd1	0.04174787
94	0x3d807fa4	0.062743455
95	0xbcdac8c2	-0.026707057
96	0x3db8af16	0.0901777
97	0x3c041273	0.008061039
98	0x3c0b2275	0.008492102
99	0x3d54ffb6	0.052001677
100	0xbc387de5	-0.011260484
101	0x3d826320	0.06366563
102	0x3d438e5c	0.047743186
103	0x3cad7e62	0.021178428
104	0xbd583488	-0.052784473
105	0x3d330cc7	0.043713357
106	0xbcb91bdb	-0.02259629
107	0x3cd65fe9	0.02616878
108	0x3d5fcc06	0.05463793
109	0x3d344f9f	0.044021245
110	0x3cb971be	0.022637244
111	0x3e07d6cf	0.13265537
112	0x3cf736d9	0.03017752
113	0x3d04fefc	0.032469735
114	0x3d8ded6f	0.069300525
115	0x3d336f33	0.04380722
116	0x3bccfe58	0.006255906
117	0xbcea3cbe	-0.028593417
118	0xbd08c1f6	-0.0333881
119	0x3db072f2	0.08615674

fc2.weight f4 [84, 120]
0	0x3d553b82	0.052058704
1	0xbd807d21	-0.062738664
2	0x3d33ecde	0.043927066
3	0xbbe3d303	-0.006952645
4	0x3d535456	0.0515941
5	0xbbb653ff	-0.0055642123
6	0xbd8d0982	-0.06886579
7	0x3c8e6f26	0.017386984
8	0xbd355933	-0.04427452
9	0x3d9f6d6e	0.07784544
10	0xbcd63222	-0.026146952
11	0xbd1546ec	-0.03644459
12	0xbdbee57e	-0.09321116
13	0xbcacf14e	-0.021111157
14	0xbd9f16a6	-0.07767992
15	0x3c0808d6	0.008302888
16	0x3cb9dd0a	0.022688407
17	0x3d3db28e	0.04631286
18	0x3d7ff3b5	0.062488277
19	0xbd8a6915	-0.06758324
20	0x3d3bc5c2	0.045842893
21	0x3b51b041	0.0031995925
22	0xbd3bd47b	-0.045856934
23	0x3cecfda5	0.02892954
24	0xbd6f91e6	-0.05848875
25	0xbdca5bf4	-0.0988082
26	0x3c86e1d6	0.016465109
27	0xbcb77323	-0.022393769
28	0xbb5fadbc	-0.0034130653
29	0xbd9063b2	-0.07050265
30	0x3ca62b24	0.020284243
31	0xbd0cc4a9	-0.034367237
32	0x3d065a62	0.03280104
33	0x3cbecfed	0.023292506
34	0x3d145063	0.036209475
35	0x3d24e46a	0.040256895
36	0xbd25be91	-0.04046494
37	0x3d08b48f	0.03337532
38	0x3d653434	0.055957988
39	0x3d41be0c	0.047300383
40	0xbd82fa62	-0.06395413
41	0xbc25b644	-0.010114256
42	0x3d8f0a8c	0.069844335
43	0xbd4e20c8	-0.05032423
44	0x3d7a6c7a	0.061138608
45	0xbd8917be	-0.066939816
46	0xbd0c1cc2	-0.034207113
47	0x3d61a9c1	0.05509353
48	0x3cecc93e	0.028904554
49	0xbd013ed7	-0.03155407
50	0xbd3e8c70	-0.04652065
51	0x3cacd335	0.021096805
52	0xbdbc4f92	-0.09194864
53	0xbd4c47ac	-0.04987304
54	0x3d980a72	0.07423867
55	0xbd9c82b3	-0.076421164
56	0x3d75d092	0.06001336
57	0x3b60b932	0.0034290073
58	0xbc1dccd6	-0.009631356
59	0xbd32747d	-0.043568123
60	0xbda0b85b	-0.07847663
61	0xbd191e2d	-0.037382293
62	0x3d2e041b	0.042484384
63	0x3d798bb2	0.06092424
64	0x3d09e816	0.0336686
65	0x3d8bc80c	0.06825265
66	0x3d00c15d	0.031434406
67	0x3c7ea5f1	0.015542493
68	0xbd599a98	-0.053125948
69	0xbc955e09	-0.018233316
70	0x3d6afa44	0.05736758
71	0xbc57604a	-0.013145516
72	0x3d576410	0.05258566
73	0x3d247a09	0.040155444
74	0x3da21a72	0.079152
75	0xbd3a126f	-0.045427736
76	0xbb3d68dc	-0.0028901612
77	0xbd31b0a2	-0.04338134
78	0x3d97747a	0.07395263
79	0xbdbc901c	-0.09207174
80	0xbd925b8c	-0.071463674
81	0xbdb5275e	-0.08845399
82	0x3da7ab6e	0.081869945
83	0xbd032597	-0.03201827
84	0xbd048dd3	-0.032361817
85	0xbcc2f1b3	-0.023796892
86	0xbd52ec08	-0.05149463
87	0x3d8dafa6	0.06918268
88	0xbdacb73e	-0.08433388
89	0xba0815d8	-0.0005191243
90	0x3d396d3a	0.045270182
91	0xbdd9aa38	-0.1062817
92	0xbd8e0fd7	-0.06936615
93	0x3cd6b679	0.026210057
94	0xbd40aa82	-0.04703761
95	0x3ccfaac9	0.025349991
96	0x3d3ce923	0.046120774
97	0x3c3cf449	0.0115328515
98	0x3d7f50dc	0.062332973
99	0x3b7eba8d	0.0038868517
100	0xbcac502c	-0.021034323
101	0xbda67ec9	-0.08129651
102	0x3d43ecc7	0.04783323
103	0xbcf33697	-0.029689116
104	0xbb932edc	-0.00449167
105	0x3cd14650	0.025546223
106	0x3d3ba35c	0.04581009
107	0xbda559e5	-0.08073787
108	0xbdbd1429	-0.09232361
109	0xbdac391c	-0.0840933
110	0xbd098ac4	-0.033579603
111	0xbd8dab96	-0.06917493
112	0xbd4a6df0	-0.04942125
113	0xbdb0525e	-0.0860946
114	0xbd5de600	-0.054174423
115	0xbd4254da	-0.047444202
116	0xba5f6fe6	-0.0008523449
117	0x3c1c6412	0.009545343
118	0x3d5353c9	0.051593576
119	0x39dc36fc	0.00042002636
120	0x3d55ecba	0.052227713
121	0xbd843f60	-0.064574
122	0xbd6ddb19	-0.058070276
123	0x3e21b887	0.15793048
124	0x3d9f64ab	0.07782873
125	0x3c82eb7a	0.015981425
126	0xbd370828	-0.044685513
127	0x3d50c880	0.05097246
128	0xbc3e1cf7	-0.011603585
129	0xbbe68ae1	-0.0070355986
130	0xbd3b0fbd	-0.045669306
131	0xbd066bab	-0.032817524
132	0x3da6f0fb	0.08151432
133	0x3e37da14	0.17954284
134	0xbdf3db11	-0.11907018
135	0x3d831347	0.06400161
136	0x3a6c1567	0.0009005875
137	0x3d6c96ae	0.057760887
138	0xbdfebb61	-0.124380834
139	0x3d1e3dec	0.038633272
140	0xbd8e571c	-0.069502085
141	0xbd25737e	-0.040393345
142	0x3dfa2cee	0.12215601
143	0x3dc2b796	0.095076725
144	0xbc9ab625	-0.018885681
145	0x3d755d01	0.05990315
146	0xbd6b4313	-0.057437014
147	0xbd8f5044	-0.06997731
148	0x3d316c79	0.04331634
149	0x3dd421ee	0.10358034
150	0xbd0fd1a2	-0.03511203
151	0x3d29a206	0.041414283
152	0x3d090435	0.033451278
153	0xbccb626d	-0.024827207
154	0xba779998	-0.00094451895
155	0x3c009dde	0.0078501385
156	0x3c8f797d	0.017513985
157	0xbdede835	-0.116165556
158	0x3e3cfdff	0.18456267
159	0xbc99d037	-0.018776042
160	0x3d64b435	0.05583592
161	0x3d1147e8	0.035468966
162	0x3cbb2251	0.022843512
163	0xbde9515c	-0.11392471
164	0x3cfc72ee	0.030816521
165	0xbdcf40fc	-0.10119817
166	0x3da98abe	0.08278416
167	0x3e029fa5	0.12756212
168	0xbd1e5d98	-0.038663477
169	0xbda6a39c	-0.08136675
170	0xbb87b4c4	-0.004141422
171	0xbd91c2a0	-0.071172
172	0xbcb15493	-0.021646773
173	0xbd353973	-0.04424424
174	0xbdab9391	-0.083777554
175	0xbda54477	-0.08069699
176	0x3db5a69b	0.08869668
177	0x3d330b74	0.043712094
178	0x3cc883ff	0.024477003
179	0x3dae733f	0.08518075
180	0x3dd16d91	0.10225976
181	0xbdb10f30	-0.08645475
182	0x3cda6868	0.026661113
183	0x3df8322b	0.12118944
184	0xbcbd61ed	-0.023117984
185	0xbc9e85e5	-0.019350955
186	0x3d9c290e	0.07625018
187	0xbdf0c6ab	-0.11756643
188	0x3ccb5d89	0.024824874
189	0x3da7681a	0.08174153
190	0x3dd2a89f	0.10286068
191	0x3bbf9667	0.005846787
192	0x3cce5b4c	0.025190018
193	0x3d8c7e04	0.06859973
194	0x3d74b58e	0.059743457
195	0xbd72b75e	-0.059256904
196	0x3db9f4a6	0.09079866
197	0x3d29a765	0.041419405
198	0x3d065b4f	0.032801922
199	0x3dbecf9e	0.093169436
200	0x3d75c65c	0.060003623
201	0xbde94520	-0.11390138
202	0x3d42c543	0.047551405
203	0xbdcf2ba9	-0.101157494
204	0xbe0eb07e	-0.13934514
205	0xbd49a931	-0.04923362
206	0xbb95f03b	-0.004575757
207	0x3caae180	0.02085948
208	0x3a337ef7	0.00068472273
209	0x3d543c3a	0.05181525
210	0x3e2710ad	0.16314955
211	0xbe0685d1	-0.13136984
212	0xbd7be436	-0.061496936
213	0xbdaaae5f	-0.0833404
214	0x3a5f9cb8	0.0008530128
215	0xbd869f92	-0.06573404
216	0xbda43e57	-0.08019703
217	0xbcc6869a	-0.024234105
218	0xbdcef813	-0.1010591
219	0xbca738ad	-0.020412767
220	0x3c6c122c	0.014408629
221	0x3d2250fb	0.03962801
222	0x3d0b050c	0.03394036
223	0xbd0fba16	-0.035089575
224	0xbdc7266e	-0.09724127
225	0xbcccd227	-0.025002552
226	0x3c7d665d	0.0154663
227	0x3db519f6	0.08842842
228	0x3c8392c7	0.0160612
229	0xbd087b6e	-0.033320837
230	0xbd3eb298	-0.04655704
231	0xbbca765a	-0.0061786594
232	0x3c7870db	0.015163626
233	0xbd81cf9e	-0.06338428
234	0x3da8f780	0.08250332
235	0xbc13ba60	-0.009016603
236	0x3d9feea0	0.07809186
237	0xbd050cdd	-0.03248297
238	0xbd3316c0	-0.043722868
239	0x3dd6ad70	0.10482299
240	0xbd3a8fbd	-0.045547236
241	0xbc647c12	-0.013945596
242	0xbd2295a0	-0.039693475
243	0xbb65834b	-0.0035020884
244	0x3dcbce53	0.099514626
245	0xbd50626a	-0.050875105
246	0xbe084a09	-0.13309492
247	0xbd3d32ca	-0.046191014
248	0xbda3307c	-0.07968232
249	0x3cbb2320	0.022843897
250	0xbd1e8fbb	-0.03871129
251	0xbd0f5701	-0.034995083
252	0x3d7b1bce	0.061305813
253	0x3de076a8	0.10960132
254	0x3d82509e	0.06363033
255	0xbc97ee70	-0.018546313

fc2.bias f4 [84]
0	0x3d3cb8ca	0.046074666
1	0x3e5620c4	0.20910937
2	0xbcc22492	-0.023699079
3	0x3d6a862f	0.057256874
4	0x3cc51ad5	0.024060646
5	0x3d8f1f82	0.069884315
6	0xbc27e20b	-0.010246764
7	0x3caa6569	0.02080031
8	0x3de3ae04	0.11117175
9	0xbda284cf	-0.079354875
10	0xbd872d6e	-0.06600462
11	0xbd57881b	-0.052620035
12	0x3d811459	0.06302709
13	0xbb4b7e23	-0.0031050525
14	0xbbea007d	-0.0071411715
15	0xbd78ba66	-0.06072464
16	0x3d1df3e6	0.038562678
17	0x3d99ccbe	0.075097546
18	0x3d97be8a	0.07409389
19	0x3e5b3d5a	0.21410123
20	0xbc28ef13	-0.010310906
21	0xbd9ab24b	-0.07553538
22	0x3ca4eed5	0.020133415
23	0x3d424dc4	0.047437444
24	0x3d705344	0.05867316
25	0x3e0ba615	0.13637574
26	0x3d5d6d88	0.054059535
27	0xbce3c3d8	-0.027803347
28	0x3ec746a9	0.38921097
29	0xbdd2d321	-0.10294176
30	0x3d84d936	0.06486742
31	0xbcac63dd	-0.021043712
32	0xbd194308	-0.03741744
33	0x3e6d77bb	0.23190205
34	0xbd5e2a77	-0.054239716
35	0xbd273c8a	-0.04082922
36	0xbd7b911f	-0.061417695
37	0xbcb8fb74	-0.02258084
38	0x3b8ddc64	0.004329251
39	0x3cc6789c	0.024227433
40	0xbb4796ba	-0.003045483
41	0x3d30e80f	0.04319006
42	0x3e3e0025	0.18554743
43	0x3d50ec6f	0.05100673
44	0x3d8423f9	0.06452174
45	0x3cb9e1e4	0.02269072
46	0xbd733f07	-0.05938628
47	0x3de8914e	0.1135584
48	0x3d7774e9	0.06041423
49	0x3d1623cf	0.036655243
50	0x3e20cf64	0.15704113
51	0xbe0a392a	-0.13498369
52	0xbd428b6e	-0.04749625
53	0x3e39a912	0.18130901
54	0xbd87e0b2	-0.06634654
55	0xbd24e229	-0.040254746
56	0x3e5018d5	0.20321973
57	0xbc1c9cd7	-0.009558878
58	0x3e1f0107	0.15527736
59	0x3d4a3a17	0.049371805
60	0x3dfd1a98	0.12358588
61	0xbdc177f6	-0.09446709
62	0x3cb0a27a	0.02156185
63	0xbd738914	-0.0594569
64	0x3d872ca6	0.06600313
65	0x3d8c0e60	0.06838679
66	0x3de67e6c	0.11254582
67	0x3dd35ac2	0.10320045
68	0x3c79eab6	0.015253713
69	0xbcf2ff5c	-0.02966278
70	0x3c39928c	0.011326443
71	0xbd3fd87d	-0.04683732
72	0xbdcb89cc	-0.09938392
73	0x3dc14831	0.094375975
74	0x3da3de6a	0.080014065
75	0x3b5df541	0.0033868107
76	0x3dfee85a	0.12446661
77	0x3e1b87f8	0.15188587
78	0x3e81d25f	0.25355813
79	0x3c7f1f9d	0.015571502
80	0x3c18cfe5	0.00932691
81	0x3dd1327a	0.10214706
82	0xbc2e6507	-0.010644204
83	0xbcdcb844	-0.026943333

fc3.weight f4 [10, 84]
0	0xbd9bf9bc	-0.076159924
1	0x3e36b526	0.1784254
2	0x3e336a00	0.17520905
3	0xbe32a310	-0.17445016
4	0x3ddbe25e	0.107365355
5	0x3e7889e8	0.24271357
6	0xbda5b5ec	-0.080913395
7	0xbe11359f	-0.14180611
8	0xbc73e99f	-0.014887243
9	0x3e087afe	0.13328168
10	0xbd7a27d8	-0.061073154
11	0xbe6d40a5	-0.23169191
12	0xbe27329a	-0.16327897
13	0xbcdda05a	-0.027054
14	0x3c098074	0.008392442
15	0x3e82bc40	0.25534248
16	0x3de77baf	0.11302888
17	0xbc65b8ed	-0.0140211405
18	0x3ce93153	0.028465902
19	0xbe5b871b	-0.21438257
20	0x3caa9050	0.020820767
21	0x3e8cdec5	0.2751371
22	0x3d9a664c	0.07539043
23	0x3e7ea17a	0.24866286
24	0xbd803ff0	-0.06262195
25	0x3e11204e	0.1417248
26	0x3e2d9184	0.16950041
27	0xbccfe2dd	-0.025376732
28	0x3e5a45f7	0.21315752
29	0x3e06e756	0.13174185
30	0x3e842020	0.2580576
31	0xbcb6ef77	-0.022330983
32	0x3bf0dca2	0.00735052
33	0xbd265512	-0.040608473
34	0xbe222d88	-0.15837681
35	0x3e8b1187	0.2716181
36	0xbe3dd09c	-0.1853661
37	0xbdc17a29	-0.09447128
38	0xbe3406da	-0.17580739
39	0x3e11a8a5	0.14224489
40	0x3eac3e11	0.33641103
41	0x3ddfd689	0.10929591
42	0x3e1a90dc	0.15094322
43	0xbe9f80d6	-0.31152982
44	0xbe0f73df	-0.14009045
45	0x3c2ce24c	0.010552
46	0x3dab0cfe	0.083520874
47	0x3e8add66	0.2712204
48	0x3e7267c9	0.23672403
49	0x3e429903	0.19003682
50	0x3e62f5f1	0.22164132
51	0xbddd61a2	-0.108096376
52	0xbe2b3205	-0.167183
53	0xbdb62e23	-0.08895519
54	0xbc3dfb31	-0.011595533
55	0x3e439eb9	0.19103517
56	0xbe19ac6e	-0.15007183
57	0x3e2fe731	0.17178036
58	0x3e09c3d5	0.1345361
59	0xbe9b717d	-0.30360022
60	0x3d7ec727	0.062201645
61	0x3dbf2bea	0.09334548
62	0xbe20f5cb	-0.15718763
63	0x3d83f3e7	0.06443005
64	0x3da35ddb	0.07976886
65	0x3eb9dfc5	0.36303535
66	0xbde17cd8	-0.1101014
67	0x3c67aaa0	0.014139801
68	0xbe763157	-0.24042259
69	0xbe027e4d	-0.12743492
70	0xbdc88b1b	-0.09792157
71	0xbdd78bd0	-0.10524714
72	0x3e153cb3	0.14573936
73	0x3aca4a13	0.0015433453
74	0x3c6b9978	0.0143798515
75	0xbdf04152	-0.11731209
76	0x3d903cc3	0.070428394
77	0xbe818743	-0.2529851
78	0xbe66022c	-0.22461766
79	0xbe2d8ea2	-0.16948941
80	0x3d1790da	0.037003376
81	0xbdde6be2	-0.10860421
82	0xbdeddf31	-0.11614836
83	0x3dcb471a	0.09925671
84	0x3caefa71	0.021359654
85	0x3d988df5	0.07448951
86	0xbdd16a17	-0.10225313
87	0x3ead1858	0.33807635
88	0xbe3252da	-0.17414418
89	0xbe19af61	-0.15008308
90	0x3daf17f0	0.085494876
91	0xbd7aaa27	-0.061197426
92	0xbdd02386	-0.101630256
93	0x3dba3f73	0.09094133
94	0x3b66be6b	0.0035208713
95	0xbdba7284	-0.09103873
96	0xbe1360e6	-0.14392433
97	0x3d9515b8	0.07279533
98	0x3dba5bd9	0.0909955
99	0xbd7151de	-0.058915965
100	0x3e947bb4	0.29000628
101	0xbe2efff0	-0.1708982
102	0xbdd575b0	-0.10422838
103	0x3bdcc106	0.0067368774
104	0x3dbd0a14	0.09230438
105	0xbe02f079	-0.12787046
106	0x3e260bae	0.16215393
107	0xbd606fc3	-0.054794084
108	0xbd838dab	-0.064235054
109	0xbe801e34	-0.25023043
110	0xbea34b36	-0.3189332
111	0xbd0670a6	-0.032822274
112	0xbe84cfa9	-0.25939682
113	0xbd04e64b	-0.032446187
114	0x3e0f92da	0.14020863
115	0xbe310369	-0.17286457
116	0x3e0edff4	0.13952619
117	0xbe83d8e4	-0.25751412
118	0x3cdc7e0e	0.026915576
119	0xbccb64f5	-0.024828414
120	0x3e1894c0	0.14900494
121	0x3ddaa769	0.10676462
122	0xbe1391c3	-0.14411072
123	0x3e35158f	0.17684005
124	0x3deec3a3	0.116584085
125	0xbe57349b	-0.21016161
126	0xbe94174d	-0.28924027
127	0x3e0bae2f	0.13640665
128	0x3c6a3c1a	0.014296556
129	0x3e7f77f0	0.24948096
130	0xbc617170	-0.013759956
131	0xbd555c6a	-0.052090086
132	0x3cbb8213	0.022889173
133	0xbdd3ee39	-0.10348172
134	0xbdf051c9	-0.11734349
135	0x3e8d5b2c	0.2760862
136	0x3ddb0f53	0.10696282
137	0xbe98ebf3	-0.29867515
138	0x3cd0396c	0.025418006
139	0x3d1fde0a	0.039030112
140	0x3e958a0c	0.29206884
141	0xbcbf14ec	-0.023325406
142	0xbe5eb3e6	-0.21748313
143	0xbd18e289	-0.037325416
144	0x3e8e2061	0.27759078
145	0xbd136f58	-0.035994858
146	0x3e0a805c	0.13525528
147	0xbd853563	-0.06504323
148	0xbe4a3b1f	-0.19749115
149	0x3b4efb59	0.003158292
150	0x3ddf2e41	0.10897494
151	0x3e98506f	0.29748866
152	0x3e6afe61	0.229486
153	0x3e6a6006	0.22888193
154	0x3daee1ad	0.08539138
155	0xbda3f7c6	-0.080062434
156	0x3ef94d38	0.48691726
157	0xbebd658d	-0.3699154
158	0xbd851f2d	-0.06500087
159	0xbd86b004	-0.06576541
160	0xbe02ccae	-0.12773392
161	0x3d82a64c	0.06379375
162	0xbe304946	-0.17215452
163	0x3c0ebe5c	0.008712377
164	0x3d7f9dea	0.062406458
165	0xbe5d03ce	-0.21583483
166	0x3db9332c	0.090429634
167	0x3d74f717	0.059805956
168	0xbdc40b9e	-0.09572528
169	0x3e3b7782	0.18307307
170	0x3e917a3a	0.28413564
171	0x3d0481a7	0.03235021
172	0xbd275e21	-0.040861253
173	0x3d75199c	0.059838876
174	0xbe1c1cc7	-0.15245353
175	0x3c63345c	0.013867464
176	0xbccb3eb0	-0.024810165
177	0x3d7c4a49	0.06159428
178	0xbd5ea0b8	-0.054352492
179	0x3e19aae1	0.15006591
180	0x3e6849b8	0.22684371
181	0x3b23e6a0	0.002500929
182	0xbda11220	-0.07864785
183	0xbe3bba5f	-0.18332814
184	0x3d843843	0.064560436
185	0x3d79f780	0.06102705
186	0xbe0ad53f	-0.1355791
187	0x3dad0c53	0.08449616
188	0x3b24dd6e	0.0025156396
189	0x3d400e28	0.0468885
190	0xbe34aaf9	-0.17643346
191	0x3e1ae575	0.15126593
192	0x3dad5a7f	0.084645264
193	0xbd526add	-0.051371444
194	0xbd5f6b9d	-0.054545987
195	0x3df41fa3	0.11920097
196	0x3e3faf1d	0.18719144
197	0xbdc15ec0	-0.094419
198	0x3d3012b7	0.042986598
199	0x3e6b6bbc	0.22990316
200	0xbe2cfa86	-0.16892442
201	0xbe21c8d0	-0.1579926
202	0x3bdc3009	0.0067195934
203	0xbe0d4744	-0.13796717
204	0xbcccc32a	-0.024995405
205	0x3d0c4163	0.034242045
206	0xbe27ba68	-0.16379702
207	0x3eae4d36	0.34043282
208	0x3e86de70	0.2634158
209	0x3df51f0a	0.11968811
210	0x3d23a6b5	0.039953906
211	0x3e73a5c5	0.23793705
212	0x3e7fb09f	0.2496972
213	0xbe17d496	-0.14827189
214	0xbd4bdd99	-0.04977188
215	0xbe9c9c78	-0.30588126
216	0xbde98b96	-0.11403577
217	0xbe1bff2e	-0.15234062
218	0x3e5de401	0.21669008
219	0xbe0a60d1	-0.13513495
220	0xbd8c30bf	-0.06845235
221	0xbd29dc30	-0.041469753
222	0x3df0d8bd	0.117600895
223	0xbc235a9c	-0.009970333
224	0xbd3f8b1c	-0.046763524
225	0x3e6f4bab	0.23368709
226	0x3def02bb	0.11670443
227	0xbd20a6e8	-0.039221674
228	0x3d4e0469	0.050297175
229	0x3bbb2f5f	0.005712434
230	0xbc00fc4d	-0.007872653
231	0xbd5feccf	-0.054669198
232	0x3dc1f599	0.09470672
233	0x3cc58f72	0.024116252
234	0xbd57585d	-0.052574504
235	0xbe5ea58f	-0.21742843
236	0xbea52471	-0.32254365
237	0x3dc9e159	0.09857435
238	0xbdef5a11	-0.11687101
239	0xbdba2bc3	-0.09090378
240	0xbe5904dc	-0.2119326
241	0x3e01e621	0.12685443
242	0xbd06d1ba	-0.032914855
243	0x3c129cef	0.008948549
244	0x3d2eac9d	0.042645086
245	0x3db4ab9f	0.088217966
246	0x3e9a35d2	0.30119187
247	0xbe1b7dec	-0.15184754
248	0x3c5c3915	0.013441344
249	0xbe772685	-0.24135788
250	0x3d468c3c	0.04847358
251	0x3b914a80	0.00443393
252	0x3d012d9f	0.03153765
253	0xbd98fec1	-0.074704655
254	0x3defefe8	0.1171568
255	0x3e116cd0	0.14201665

fc3.bias f4 [10]
0	0x3cc2c75a	0.023776699
1	0xbe9b7ecc	-0.30370176
2	0x3e4a3476	0.19746575
3	0xbdec4c91	-0.115380414
4	0x3e8872dc	0.2665013
5	0xbe2448e2	-0.16043428
6	0x3f0570ae	0.5212506
7	0xbd9f4e79	-0.07778639
8	0xbd17cf60	-0.037063003
9	0xbe6853df	-0.22688244
