examples/autoencoder/ConvAutoEncoder.pth (torch, 845927 bytes, 11 tensors)

encoder.0.weight f4 [16, 1, 3, 3]
00000000: a0cc 8f3e e8c5 b1bd bff8 8dbe 3022 d33d
00000010: 1fa8 77be 0944 423d 4eb1 553d 1642 a9bd
00000020: c76a 20be 994e 91bd 185c 8d3e 26d3 07be
00000030: 119f 92bd 577e 1a3f 7d26 0b3e 805c 61be
00000040: 5bd2 b33e f70a 93be af58 98be 6d14 ddbe
00000050: afbe 503e bb8b 97be d86a 4d3c 9853 f53e
00000060: 9d5a e2bd 3873 1dbb 4bcc 9f3e 1cf1 5c3e
00000070: 383b df3c 783c bc3d 6874 88be 7524 b3bd
00000080: cd39 19be 5a34 b8be 766f 86be e680 39be
00000090: c647 cfbd 0d3c 8b3e 1ff8 903e 2406 a23e
000000a0: 8f4e 173e 9a5b 2abe 663e 59bd 416c 8ebe
000000b0: f4e8 2dbe b8d9 16be c37f 4c3d de76 513d
000000c0: 1a04 e33e 8a42 df3e 994b 86be d740 203e
000000d0: 0a35 623e 5057 e2be 97d2 88be 2057 8ebe
000000e0: 1173 6b3c dba3 1f3d 259d 3ebe 9ccc a8be
000000f0: 23bd 063e 7a55 6ebe 9218 153e 98ff e6bd
00000100: 17e9 033e 8d62 03be 7321 32be 7b07 f33d
00000110: 4fac d5bc 3ba2 91be fbde 61be d57c 0abe
00000120: 15c3 12be cca3 a6bd 9b6b 91ba 486b 8abe
00000130: 2501 f63d 4612 66be 346d d93d f944 963e
00000140: 5a41 a73c 0dd7 003c 9873 8d3e 2ca0 b73e
00000150: e1d3 79be 7ebf cd3e 1870 ae3e 9ce7 edbe
00000160: 3421 8abe 058d ec3d 5d5b 53bc 5131 95be
00000170: 999b 19bf 8399 dc3e d139 c23e 14c0 27be
00000180: 6ed8 9b3d ac00 af3e 4011 5f3e 3af8 d7be
00000190: ef11 6bbe 51a8 19be 2aef b4be 3b9e 503e
000001a0: 65c2 943e f3d8 de3e 3929 de3e e153 1a3e
000001b0: 0c0a a4bd 47de 83be e15c 9cbe 090a 913d
000001c0: f2ef 9c3e 2f5b c43d dcfd 013e 9550 2bbe
000001d0: dbcf 8bbd be27 953e e155 cd3d 7cb5 2cbd
000001e0: f68c 793e a34c 52be 9252 75be 75f2 b53e
000001f0: 04f7 8abe fb33 f03d 9e64 963d 4e5c 4abe
00000200: 681d 94be 1134 c8bd ae2d 94be 9e7c ba3c
00000210: 9d62 993e fb22 803d d1e4 82be 8fa7 ab3e
00000220: 3c6b ac3e c8de a13e 1321 713e 1143 1b3e
00000230: a0fe c33e 66ab aa3e f6f9 933e f772 923e
0.28085804 -0.08680326 -0.2772884 0.10309255 -0.24185227 0.047428165 0.052171044 -0.08264558
-0.15665732 -0.070950694 0.27609324 -0.1326414 -0.07159246 0.6034903 0.13588901 -0.22007942
0.35121426 -0.28719303 -0.2975516 -0.43179646 0.2038524 -0.29598793 0.012537681 0.4791534
-0.11052439 -0.0024024975 0.3121055 0.21576351 0.027249917 0.09191221 -0.2665131 -0.08747188
-0.14963455 -0.3597744 -0.26256913 -0.18115577 -0.101211116 0.27194253 0.283143 0.3164531
0.14776061 -0.16636506 -0.053038023 -0.27816966 -0.16983396 -0.1473149 0.04992653 0.05113875
0.44339067 0.43605453 -0.2622955 0.15649734 0.22090545 -0.4420724 -0.26723167 -0.27800846
0.014370696 0.038974624 -0.18614633 -0.32968605 0.13158087 -0.23274794 0.14560154 -0.112792194
0.12881885 -0.12830563 -0.17395572 0.11866661 -0.02608314 -0.28444085 -0.22057717 -0.13524182
-0.1433223 -0.081367105 -0.0011094691 -0.27034974 0.12011937 -0.22467908 0.10616532 0.29349497
0.020416904 0.007863772 0.27627254 0.3586439 -0.24397232 0.4018516 0.34069896 -0.46465766
-0.26978457 0.11550335 -0.012900201 -0.29139188 -0.6000305 0.4308587 0.37934735 -0.16381866
0.0760964 0.341802 0.21783924 -0.4218157 -0.2295606 -0.15005614 -0.35338718 0.2037286
0.2905456 0.43524894 0.43390825 0.1507106 -0.08009729 -0.25755522 -0.3053961 0.07081992
0.30651814 0.095877044 0.12694496 -0.16729958 -0.06826755 0.29131883 0.10026146 -0.042165264
0.24370179 -0.20537047 -0.2395728 0.35536543 -0.27141583 0.117286645 0.0734341 -0.19761774
-0.28928685 -0.09775556 -0.289411 0.0227645 0.29958048 0.06256672 -0.25565198 0.33526275
0.33675563 0.3161528 0.23547773 0.15162303 0.382802 0.33333892 0.28901643 0.28603336

encoder.0.bias f4 [16]
00000000: cb38 babe 7b48 163f 1dc3 0fbe 78f9 a5be
00000010: 7138 833e eece 023f 6958 32be 70fe ffbd
00000020: 4210 813e 2310 033f 1902 c43e 688f bb3e
00000030: 5789 253d 2ad4 ac3e a160 06be 1304 bcbe
-0.36371455 0.58704346 -0.14039274 -0.32416892 0.25629 0.51097 -0.17416538 -0.12499702
0.25207716 0.511965 0.3828285 0.36632848 0.04041418 0.33755618 -0.13122799 -0.36721858

encoder.2.weight f4 [32, 16, 3, 3]
00000000: a1b2 cbbc 6c06 8ebd ffcb 0d3e 034b 8d3d
00000010: aacb 6fbd 09fc 3f3e cb6c c43e 6772 47be
00000020: 58f8 203e 0b33 ccbc b54d bbbb 4755 f5bc
00000030: 70d5 813e 261d 093d 77ff e43d 84f3 313e
00000040: f958 40be d071 e1bd 484f 943c 0dc0 2d3c
00000050: 98c1 47bd a62a 0f3e d9d3 aabb 6bb2 913d
00000060: ecb8 243d 2ced 37be a04c ee3d 66b8 aebc
00000070: d4b0 f9bd cd4c 2dbb 2b16 91bd 7d29 8a3d
00000080: 52e7 80bd 6266 f43c 81b3 843d 461d 573d
00000090: aaaa 0ebe e2bc 563d cb90 a8bd 1c4d a13d
000000a0: 3a78 483e 5f88 993d 0db9 793d c1e0 05be
000000b0: 4218 d4bc 8239 6cbc 4adf a43d a03c 60bd
000000c0: 3e10 a83e f786 97bd 4a76 f73d 50f5 1e3e
000000d0: 4c78 76be 796c 2d3c 78e5 49bc a865 6a3b
000000e0: 9312 81bd 871f 90bd 7533 d4bd 8534 82bd
000000f0: a011 193c b96c da3d 0d9b 473b 0eef eb3d
00000100: 64d9 1c3d a0a1 57bd 13d0 2fbd d748 783c
00000110: b942 92bd ad3c 83bd 7e58 84bd c219 2abc
00000120: b80a d03d a20d 2b3e 5541 803b f96b 0b3d
00000130: 3e7d 41bd 637a e6bb 1236 85bd 543e 203e
00000140: 5395 02bd 30a1 773c 4ae8 d63c 5d40 343c
00000150: 3283 343d 8653 cb3d 0fab 5c3e 65e2 563d
00000160: b084 8abe a9ec 8a3d 1374 963d b41f ee3d
00000170: e900 c5bc 9aab b4bb 7e8f b5bc 943e d13e
00000180: a6b7 ac3d c810 1bbe 2313 7a3c f8e8 bd3d
00000190: 5df5 073d 12ce 7d3d 79d3 893e 361f fabc
000001a0: fd40 093e 6300 693d c25b 8f3c 6f22 893b
000001b0: ddc4 76bd 0b5b 26bd de8e b63b 01b6 a03c
000001c0: d103 7abc e91e 28bd 99a6 8c3d 6b1c a13d
000001d0: 8fd1 a53c 5f53 b2bc 6efe 263e bf09 263d
000001e0: 6aca b0bd 1aba 623e 007d f1bc 2226 2f3e
000001f0: 3ba5 fcbd 50e5 93bd 169f 7e3c a7d3 84bc
00000200: 8bd8 2c3d 16ec 903b 7ec1 73bc e0bd 683c
00000210: 1f8a 4b3d b147 c33d 9744 57bc 1a0f 983d
00000220: 08af 783d c0c4 d1bd 20f6 ad3e ddb5 a83e
00000230: b7c6 903e a010 693e a4c7 49be dfb3 e1bb
00000240: e816 dc3e 32a3 a8be 8420 aa3e e860 b8bd
00000250: 4f21 5c3d f9ff b73e 7886 b63d 877b 623e
00000260: daee 8a3d 6b92 eb3d e25a e2be 4cb0 113c
00000270: 1600 32be c389 b4be 2df4 cf3d eedf 963d
00000280: 84f8 233c 416c d83b cbf7 a43d 3d21 8ebd
00000290: 96c6 f93d ba5b b5be 1943 183e f0d9 3f3e
000002a0: 4059 1f3d 5427 223e c0de 203d 30c0 463d
000002b0: d39a dd3d 41b1 963d 8c85 13bc f1f2 2b3d
000002c0: ce2d 81bd 209a 0cbb 83ab b93d 7699 9f3d
000002d0: a3d7 85bd f7f0 813d 23a4 97bd 825a 26be
000002e0: fe6b 73bd 61c0 1f3e b928 293e 0168 373d
000002f0: b73b 303c d17b 29bd edfb cc3c 5d41 093e
00000300: cd43 85bd 71d2 87be e547 7a3d 5070 c03d
00000310: d44d 8a3d 2c48 b5bc db6a aa3d f09d c93d
00000320: 9c23 11bb f84c 183e b7fe 643c 8558 513d
00000330: f5dd 543c 322d 2c3d 9617 07bd 59c5 e93d
00000340: 3b08 953c 1a0b 753c 931e af3c 4a3a cd3d
00000350: c13b 41bd 0893 633c e701 36bd d05a bc3d
00000360: 5ca4 12bd 2dd2 eebc 43a4 ddba c2d1 d43d
00000370: 272a 533d fce1 983d f764 75bd c86c 02be
00000380: f288 903c df22 41be c7ad fcbd 3280 0b3d
00000390: b52c 94bc 4ac4 97be 449e 973c 0d61 223e
000003a0: 513e 7c3d 4fe2 a03d 51c7 cbbe 75a9 4ebe
000003b0: 1724 613d 0679 c7bd f2bd bcbe dd7b 9ebd
000003c0: 66d6 2e3e 9d03 8c3d a5f1 403d f1fc 81bc
000003d0: daad fbbe e108 6fbe 5ea0 8ebd 9cdf 303d
000003e0: 4685 773e 29bf cd3b bd09 923d 3f80 6f3d
000003f0: ecd8 d23d 9ebd 0c3e 5ea1 95bd 5b43 93bc
-0.02486545 -0.069348186 0.1384735 0.06899073 -0.05854384 0.18748488 0.38364252 -0.19477235
0.15719736 -0.024926683 -0.0057160505 -0.02994789 0.25358152 0.033475064 0.111815386 0.1737805
-0.1878394 -0.11008036 0.01810421 0.0106048705 -0.04876861 0.13981113 -0.0052132425 0.07114109
0.040215418 -0.17961568 0.11635709 -0.021328162 -0.121919304 -0.0026443482 -0.07084306 0.067461945
-0.06294121 0.029833976 0.0647955 0.05251815 -0.1393229 0.052426226 -0.08230742 0.078760356
0.19577113 0.07496714 0.060967494 -0.13074018 -0.025890473 -0.014418008 0.080504015 -0.054745317
0.32824892 -0.073987894 0.12083109 0.15523267 -0.24069327 0.010584944 -0.012322776 0.0035766158
-0.06302371 -0.07037263 -0.10361377 -0.063576736 0.009342581 0.106652685 0.0030457408 0.115202054
0.038293257 -0.052644372 -0.042923044 0.015154085 -0.071416326 -0.06408057 -0.06462191 -0.010382118
0.101582944 0.1670442 0.003914038 0.034038518 -0.04723858 -0.0070336326 -0.06504454 0.15648776
-0.031880688 0.015114114 0.026233811 0.0110016735 0.04407043 0.0992804 0.21549629 0.052462
-0.27054358 0.067834206 0.07346358 0.11627141 -0.024048286 -0.0055136206 -0.022163149 0.40868056
0.08433466 -0.1514312 0.015263352 0.09272951 0.03319298 0.061964102 0.26919153 -0.03053246
0.13403697 0.056885134 0.017499808 0.004185013 -0.060246337 -0.04061417 0.0055712303 0.019618036
-0.015259699 -0.041045103 0.068677135 0.078667484 0.020241527 -0.02176827 0.16307995 0.04053664
-0.086323574 0.22141305 -0.02947855 0.1710439 -0.12336203 -0.07221472 0.015540859 -0.016214205
0.0421987 0.004422675 -0.014877675 0.014205426 0.04969227 0.095351584 -0.013138912 0.074247554
0.060713798 -0.10242605 0.3397684 0.3295125 0.28276607 0.22760248 -0.19705063 -0.0068878974
0.42986226 -0.32937008 0.33227932 -0.090028584 0.053742703 0.3593748 0.08912367 0.22117434
0.067838386 0.115025364 -0.44209963 0.00889213 -0.17382845 -0.35261354 0.10153995 0.0736693
0.010007981 0.0066047017 0.08055075 -0.069399334 0.121960804 -0.35421544 0.14869346 0.1873548
0.038903475 0.15835315 0.03927493 0.048523128 0.10820546 0.07358027 -0.009004008 0.041979734
-0.06307565 -0.002145417 0.090659164 0.07792942 -0.0653527 0.063447885 -0.074043535 -0.16245463
-0.05942916 0.1560073 0.1651944 0.04477692 0.010756425 -0.041377846 0.025022471 0.1340384
-0.065070726 -0.26527742 0.06110372 0.09396422 0.06753126 -0.02212914 0.08321162 0.09844577
-0.002214647 0.14873111 0.013976744 0.05110981 0.012992372 0.04203529 -0.032981478 0.11414594
0.018192401 0.01495626 0.021376884 0.100208834 -0.047176126 0.013890035 -0.044435408 0.091970086
-0.035801277 -0.029152954 -0.0016909916 0.10391571 0.05155387 0.07464978 -0.05991074 -0.12736809
0.017643426 -0.18860959 -0.12337833 0.034057803 -0.018087724 -0.29641944 0.018508084 0.15857334
0.061582867 0.07855665 -0.39800504 -0.2018183 0.05496606 -0.0973988 -0.36863667 -0.07738469
0.17073974 0.06836627 0.04710545 -0.015867682 -0.49156076 -0.23343231 -0.06964181 0.043182
0.24171934 0.0062788916 0.07130764 0.058471914 0.10295281 0.13744208 -0.07306169 -0.017976454

encoder.2.bias f4 [32]
00000000: da4b e73c db33 37bd bb8b 123d 016e beba
00000010: 92ee 2c3c c384 82bd 41a9 0d3d eb89 88bd
00000020: 1902 01bc 808b 2a3d 04f0 55bd f752 36bc
00000030: cecd 3abd 38e6 43bd 5c88 8d3d e5fd ccbc
00000040: 0add 2c3d 33aa d33b 0424 0f3b d1ec 81bd
00000050: 5261 7dbd 597b 83bd e62d 7bbb 3991 943d
00000060: 5b74 ba3c 4e04 983d 01de 8c3d 1dcc f33c
00000070: db18 393d 5313 bb3d ab7c 34bd 6d75 f43d
0.028234411 -0.044727188 0.03577779 -0.0014528633 0.0105549265 -0.063729785 0.03458524 -0.06666931
-0.007874035 0.041636944 -0.05223085 -0.011128179 -0.045606427 -0.047826976 0.06910774 -0.02502341
0.042202987 0.0064594983 0.0021841535 -0.06343997 -0.06186039 -0.06420011 -0.0038326918 0.072542615
0.02276056 0.07422696 0.068782814 0.029760415 0.04518972 0.09134545 -0.044064205 0.1193646

encoder.4.weight f4 [64, 32, 7, 7]
00000000: f34c cbbc f5ea 0cbd df39 08bd 95ab f8bc
00000010: a11d ed3b 9ba2 44bd 23e5 37bd ead0 953b
00000020: db16 1bbd 2ca1 6f3d 381f 263e 1365 01bd
00000030: a066 98bc 4cd3 54bd fb46 bbbc f8e0 ba3a
00000040: db8e c1bd 4cf5 80bc a43b 1a3e abbe ea3d
00000050: ef89 1bbd b694 883d a6ae bbbd 39be 263d
00000060: ceac 6dbc f504 993d a984 f1bc 43fd 4d3e
00000070: 12e4 823c 5775 1b3e 3419 c2bd 95b1 c23c
00000080: f0bf cf3c 0255 2d3e 078c c63d 23dd 893d
00000090: b467 c33c 70bb 40bd 50bd 7abd 13fe 25bd
000000a0: 9cd5 c739 7627 0a3c ff96 07bd 2d27 d9bb
000000b0: 9112 8bbd 824b 5bbc 8362 01bd f11b c23c
000000c0: f0c8 d93c d244 ce3c fbf1 123c 2a00 a0bb
000000d0: 83bf 1d3d 5873 93bc 0285 b43c 8607 293e
000000e0: 2aa2 113d 544f 23bd 1817 063d aefa 50bd
000000f0: 0f8f 9ebb 6371 cb3b abb8 12bc 7521 babc
00000100: ba0d 62ba 5db0 19bc 04af 4b3e 8a73 b63c
00000110: c80a 9fbd dd8c a83c 52bd de3d e1fe 8f3a
00000120: 2a10 ec39 508d 2b3d d6e1 98bc 7a68 173d
00000130: 4b1f 3ebd ee9e eb3c 5f72 d8bc 1c24 973d
00000140: fc87 913d 8f17 e73d 50aa f238 a8a1 22bd
00000150: 654f ae3d d09a 91bd 86ef 29bd 8a52 be3b
00000160: 7b86 ae3d b995 413c 4f2d e93c d75a 403c
00000170: 4cd2 2bbc 9e4f aa3d ef66 003e b8c0 62bc
00000180: eb67 45bc 6ba8 15bd 2939 13bd c7f8 d1bc
00000190: 9160 54bc 5992 cc3c 4484 aebd 983a 3dbd
000001a0: b52a 213c 5574 69bc c774 1f3d b163 a03c
000001b0: f48f bdbd 46fe 3bbd f33a e0bc 4cc4 31bd
000001c0: c1f1 883c bfe8 c23c d103 11bc 1c8d 9dbd
000001d0: 2eee 9bbd 6a13 44bd 28aa aa3b d106 adbb
000001e0: ef0d 2c3c d8f4 a23c 4a02 103d 06e4 2ebe
000001f0: f343 65bd d4fd c6bc 46ad 913b f698 ffbb
00000200: 365c 21bc b155 c83c 0c51 72be 968f 85bd
00000210: 8b3f 0dbd 8008 933b df05 393c 17e8 903b
00000220: 0eda 973d bc98 52bd 8e7d 7fbd b5f6 23bc
00000230: 391e b13b 6bc2 19bd 0b0b b33c 1333 bfba
00000240: 223b 11bd 9706 cfbc f63c 903b 8dbb cf3c
00000250: 5743 d1bc 9039 ff3c fcdf 273e fad6 b73c
00000260: c4d0 ebbc 875f c73d 9ae2 983c 99d4 a3bd
00000270: d48a c63b a62d b53b 86e0 81bd 06bc 603d
00000280: 1250 b5bd 01e7 e53c 1593 33bd 3158 683b
00000290: 847c 05bc f278 0a3d 63b8 56bd d6db 17bc
000002a0: 6d76 8abc 7588 593d 783d eebc cd00 ee3d
000002b0: c942 4c3c 1db6 dabc 4628 233e bfe8 1e3c
000002c0: 5a6a ef3d c800 00bc e894 873d 8c18 47bd
000002d0: 73e2 233e e826 803d a930 923c 17c5 debc
000002e0: 84bd 2a3c f4fb 89bb b427 d2bd eabe 093d
000002f0: 19b3 9e3d 5840 953b 12e8 3e3d 42fb 9cba
00000300: 0678 d8bc 838d 69bd 09dd 8dbd 8d95 973d
00000310: a9e4 b7bb 3370 cfbc 9bb4 8a3c ed0f 1ebd
00000320: 57a2 11bd 3f56 0a3d e584 9ebc 5372 0cbc
00000330: c964 5c3c 357c d83b dbae 96bc 8ffa 913c
00000340: 0f07 97bd 15b3 c53c c451 84bd d5a0 0cbc
00000350: 594c a5bd 7a2a 44bc 0d15 913d e2fd 8a3d
00000360: 1692 10be cdb1 b53c 5fec 65bb b5f7 e93d
00000370: 3fe0 3fbc 7419 a9bd f61d 853d bcb0 39bd
00000380: c561 ac3c 948a 4d3b 425f f3bd fc36 133d
00000390: fa83 15bd fe7e 87bd 7bf0 8b3d 583b ab3d
000003a0: fb35 c7bc 6b91 a33d 815c 4a3e f985 983d
000003b0: 3f49 c33d f416 74bd a999 f7bc d7ea 01bd
000003c0: 3d60 e3bc e4ff 9abd efbb 9ebd c56c fd3b
000003d0: 56f0 fd3c aabd 45bc a544 1f3b 7f9e a6bb
000003e0: 807c 78bd 2dfb 34bc 248e 3abd fdf1 4d3b
000003f0: 548f b4bb 4dae dabc 7d86 1f3d db76 133c
-0.024816966 -0.03440376 -0.033258315 -0.030355254 0.007236198 -0.048006635 -0.044896256 0.0045720236
-0.037863594 0.058503315 0.16222847 -0.031590533 -0.018603623 -0.05195932 -0.022860995 0.001425772
-0.09451076 -0.015741967 0.15061814 0.11462148 -0.03797334 0.06668989 -0.09164171 0.040708754
-0.014506532 0.074716486 -0.029482203 0.20116143 0.015977893 0.1518148 -0.09477463 0.023766318
0.025360078 0.16926959 0.09694677 0.067316316 0.02385316 -0.047053754 -0.0612157 -0.040525507
0.0003811539 0.00843226 -0.033102985 -0.0066269846 -0.06790651 -0.013384702 -0.03158809 0.023694964
0.026585072 0.0251793 0.008968825 -0.004882832 0.038512718 -0.017999336 0.02203608 0.16506776
0.035555042 -0.039870575 0.032736868 -0.051020317 -0.0048388313 0.006208585 -0.008955161 -0.022721032
-0.0008623261 -0.009380427 0.19890982 0.02227189 -0.07765728 0.020574981 0.10875954 0.0010985994
0.0004502547 0.041882813 -0.018662374 0.03696487 -0.046416562 0.028762307 -0.026421724 0.07379934
0.07106015 0.1128379 0.000115711824 -0.03970495 0.08511237 -0.07109606 -0.041488193 0.0058081793
0.08521744 0.011815482 0.028463988 0.011740408 -0.01048715 0.08315967 0.12539266 -0.013839893
-0.012048702 -0.03653757 -0.035943184 -0.025631322 -0.012962476 0.024972128 -0.085213214 -0.046198457
0.009836842 -0.014248927 0.038929727 0.019578787 -0.092559725 -0.04589679 -0.02737186 -0.043400094
0.01671684 0.023792623 -0.008851008 -0.0769293 -0.076137885 -0.047870077 0.0052082725 -0.0052803536
0.010501369 0.019892141 0.035158433 -0.17079172 -0.055973005 -0.024290957 0.0044457046 -0.007800217
-0.009848645 0.024454923 -0.2366373 -0.065215275 -0.034484427 0.0044870973 0.011292904 0.0044221985
0.074146375 -0.05141519 -0.062375598 -0.01000755 0.005405214 -0.037538927 0.021855852 -0.0014587365
-0.035456784 -0.025271697 0.0044017984 0.025357986 -0.025544805 0.031155378 0.16394037 0.022441376
-0.02878607 0.09735017 0.01866274 -0.07999534 0.00605903 0.0055291234 -0.063416526 0.054866813
-0.08853163 0.028064253 -0.04384144 0.0035452957 -0.008147363 0.03380675 -0.05242194 -0.009268722
-0.016902173 0.05310865 -0.029082045 0.116212465 0.012467095 -0.026698167 0.15933332 0.009699046
0.11690207 -0.007812686 0.066201985 -0.048607394 0.16004352 0.06257421 0.017845469 -0.02719359
0.010421161 -0.0042109434 -0.10261479 0.033629335 0.07749004 0.0045547895 0.04660804 -0.0011976736
-0.02642442 -0.05701972 -0.06926925 0.074015714 -0.005611975 -0.025322055 0.016931823 -0.038589407
-0.03555521 0.033773657 -0.019350478 -0.008572179 0.013451763 0.0066066035 -0.018393924 0.017819671
-0.07374393 0.024133245 -0.06460908 -0.008583267 -0.08071203 -0.011973018 0.07084093 0.067867056
-0.14118227 0.022179509 -0.0035083515 0.114241995 -0.011711179 -0.08256808 0.06499855 -0.045334563
0.021042714 0.0031363117 -0.11883403 0.03594111 -0.036502816 -0.06616019 0.068329774 0.08360928
-0.024317732 0.07986721 0.1976185 0.07447428 0.09535455 -0.059592202 -0.030224638 -0.0317181
-0.02775585 -0.075683385 -0.07750689 0.0077339136 0.03099839 -0.012069145 0.002430239 -0.005084812
-0.060665607 -0.011046213 -0.045545712 0.0031424754 -0.00551025 -0.026694441 0.038946617 0.009000505

encoder.4.bias f4 [64]
00000000: b740 3abd 40c1 073c 4eba b13b 3d81 bfbc
00000010: 4245 d23a 8bd0 a33c 5b16 bdbb 8e53 2abc
00000020: 55a1 e1bb fe38 8b3a 0227 34bc 2312 1c3d
00000030: 8a73 233c 202f b63c 6041 bcbc 1427 5c39
00000040: bf44 013b ea9e 3a3c c6e0 113d 2852 05bd
00000050: 35db 30bd 1913 263d 224d ea3c 4743 ed3c
00000060: e0a2 1d3c 5c2f 113d 7d28 103d ef23 bb3c
00000070: ac36 403b 26ce 613b 6e65 1e3c 1ece 053c
00000080: 8b4b 0bbc 45eb 29bc 7347 e13b 5fce 283c
00000090: 624d e5bc 6829 1ebd 8cd9 d4bb 5ad3 633c
000000a0: 108d f93c f8a7 f5bc bf51 103a a731 1f3c
000000b0: 7f45 06bd 5722 7f3a e4d2 e33c 8ef8 97bc
000000c0: f644 3d3a 7390 eebc c647 693b 2fcb e4bc
000000d0: f703 4e3a 78b5 cebc adbb 3d3d 798d 743b
000000e0: 2b7c 6ebb 6d47 eb3c afc0 943c 8fca 47bd
000000f0: 5f68 69bc ffff 0a3b 274b 38bc 8e77 bcbc
-0.045471873 0.0082858205 0.0054238206 -0.023377055 0.0016042369 0.019996902 -0.0057704872 -0.010395898
-0.0068856874 0.0010621843 -0.010995628 0.038103234 0.009976277 0.022239268 -0.022980392 0.00020995393
0.0019724814 0.011390427 0.03561475 -0.032549053 -0.043177802 0.040545557 0.028601233 0.028962744
0.009621352 0.035445556 0.035194863 0.022844283 0.0029329462 0.003445515 0.009667737 0.008166818
-0.008501898 -0.010371034 0.0068749725 0.010303109 -0.027991 -0.038613707 -0.00649566 0.013905371
0.030462772 -0.02998732 0.0005505345 0.009716428 -0.03278112 0.0009732595 0.027810521 -0.018551137
0.0007220054 -0.029121613 0.0035595759 -0.027928917 0.0007858867 -0.025233015 0.04632156 0.003731577
-0.0036389928 0.028720582 0.018158285 -0.04877716 -0.014246075 0.0021209714 -0.011248386 -0.023006227

decoder.0.weight f4 [64, 32, 7, 7]
00000000: 5dfa a23b e517 17bd 203c 05bb 54ad 04be
00000010: 59b7 86bd aee4 9d3d 2f9c 493d de2f cbbd
00000020: 98a4 ab3b 6741 6f3c f6d4 583d 8b36 63bc
00000030: fb97 aabc 593e 39bc 3e46 1fbe 9420 783b
00000040: cda5 f9bc 88d0 af3c 0c51 533c ada3 4f3c
00000050: 5104 49bb 2272 6c3d 8c72 f9bd 4432 a13d
00000060: 16f3 3fbd b5e0 46bc 9e3d acbb 9b14 4f3d
00000070: f440 9bbb af93 e03a 2a4c 81bd c50d eabc
00000080: 9da0 b03d 7714 bb3b 29af eabb 1959 0f3d
00000090: 25bc 79bd 8623 f03c c074 cc3b 8d1e afbc
000000a0: d50d 66bd 6041 873c 8d79 e2ba e920 46bd
000000b0: f94b a23b 6d0f 3a3d 0152 3fbd f63c abbb
000000c0: c34a ddbc 376f babc b2ee bdbb 8e02 86bc
000000d0: 06fe 4a3d 067c ec3c 3af5 a23b 16e9 c6bd
000000e0: a682 e53d ca9e 1a3d f57f acbc bc0f 413c
000000f0: 2bca da3c 7517 883c 036d 00bd 06d7 b73d
00000100: 1345 7e3c 9218 2c3d ec6d 253c 0552 2abd
00000110: 3b11 d8bc 5c68 5f3d 63ad 10bc 5676 fc3c
00000120: d183 1ebd 2a96 9b3c fa22 3bbd e7f0 42bb
00000130: a3cb 67bc 8305 dabb ec7b b7bd 8bf1 753c
00000140: e1ca 163d c9b0 183c d4bd d7bd ed57 17be
00000150: 4a32 ca3c 614b f2bb 2418 96bc b20d 0e3c
00000160: c687 413d fc84 17bd bf72 03bd b3d0 d03c
00000170: fea4 92bd 32a8 863c a073 983c c674 453c
00000180: bb1d 6a3d 002b 5bbd 5d41 a5bc 3311 e03c
00000190: dddb a7bd 21d8 90bd de11 b43b 3090 633d
000001a0: bda1 a33d c39b 973d 4af8 91bd 72c7 e33b
000001b0: 780f 413d 9305 9e3c 7a7f 373d 9567 823c
000001c0: 5351 72bc 263d f13d 6d1a c7bd 5100 5fbd
000001d0: 840b 813c 6d79 493a e450 adbd b510 8f3c
000001e0: e279 c1bb b4b7 69bc 239d 7ebd 2f6c d13d
000001f0: 53d5 a1bd 4439 a23b b414 4c3c 565d 07bc
00000200: ac54 b7bd 2d86 2a3b 0d84 f53c 9772 613c
00000210: 1e4b bdbd d956 5f3d 2886 2c3c 59ae 953d
00000220: db6c 26bd 12d4 cd3d a415 e1bd a260 4dbc
00000230: 05d7 e5bc 7885 44bd 4940 cdbd 2bec 42bc
00000240: 6ed4 e93c 582c 483d 67d3 d0bd 513a b43b
00000250: 6857 183a 23ad 2cbe 2741 d3bd 6902 c8bd
00000260: abb8 67bd 550d 07bd cca7 8bbc 64d6 02bc
00000270: 6055 743d 2c87 883b b4d9 99b9 96f9 dc3c
00000280: 52ae 9f3c 7067 2e3c 4466 69bc a7e5 46bb
00000290: dbad 043d 7000 ecbb c012 da3c fb32 ecbc
000002a0: 7841 abbc d39f 523d c98c 28bb 454a 92bc
000002b0: 2f20 733d 8823 c5bd 9e59 d73d 084c e8bc
000002c0: a183 313c 362d 903d 325d c3bd 2dd3 dabd
000002d0: ff8a b4bb 5d65 753d c36b cbbc 4ee0 8b3d
000002e0: 04fd c5bc 7075 023c d5e0 afbc 542c 60bd
000002f0: a95b 29bc 5447 2ebd 5bb2 8dbd a94d a53d
00000300: fb8e df3b c615 fbbc 9fab bdbc 07e7 083d
00000310: e9b3 c23c 4e13 47bb 740e f73b 77a1 0f3e
00000320: a07c 89bc 3a77 2b3d 9c64 b33d 9e2b 243d
00000330: 3d41 093d 8aa2 41bd 7358 18bd 047b 013d
00000340: f0f4 a93d 8f55 573d 1c1e 6dba 430c 2c3c
00000350: b649 acbc 837b e93d 59d6 b0bc c809 01be
00000360: cc85 493d a0f7 ca3b 260c 09bd 1845 86bc
00000370: d19d c5bc 8b72 27bc 4aa3 7c3d debd d8bd
00000380: 7bf3 55bc b017 013d ae2f 813c 2036 8e3c
00000390: 8786 263d 7301 b43c 6384 c63c e0c7 e43c
000003a0: e681 24bc 2532 f9bc f82c 193b 967a 1e3c
000003b0: 98f6 7ebd c400 8b3c b270 473c fe63 573c
000003c0: cd46 1b3c 9540 e1bb c039 e93c 0ed3 df3d
000003d0: da6c 593c 0b8a ac3c ed69 093b 7def c23c
000003e0: e175 e5b8 b240 66bd 59df f23a 92b5 ecbb
000003f0: 28bb 913b c6ae 73bd 8259 803b 64d9 493b
0.0049736933 -0.036888022 -0.0020330027 -0.12956744 -0.065779395 0.07709633 0.049221214 -0.09921239
0.005238127 0.0146029955 0.05293747 -0.0138679845 -0.020824423 -0.011306369 -0.15554139 0.0037861215
-0.030474568 0.02146174 0.012897741 0.012673301 -0.0030672739 0.057726033 -0.12180051 0.078709155
-0.046862684 -0.012138535 -0.005256369 0.05055676 -0.0047379676 0.0017133857 -0.06313355 -0.028571019
0.086243846 0.0057092267 -0.007161994 0.03499708 -0.060970444 0.029313814 0.0062395036 -0.021376872
-0.056165535 0.016510665 -0.0017278657 -0.04837123 0.0049529043 0.045424867 -0.046709064 -0.005225773
-0.027013188 -0.02275811 -0.005796277 -0.01635864 0.049558662 0.028867733 0.004973081 -0.09712426
0.1120656 0.03774909 -0.021057108 0.0117835365 0.02670773 0.016612748 -0.03135396 0.08976559
0.015519398 0.04201562 0.010097008 -0.041582126 -0.026375404 0.054542884 -0.008830401 0.030818146
-0.03869993 0.018992502 -0.045687653 -0.002974564 -0.014147672 -0.006653489 -0.08959183 0.015011202
0.036814574 0.009319493 -0.10534254 -0.14779635 0.024682183 -0.00739424 -0.018322058 0.008670257
0.047248624 -0.03699206 -0.032091852 0.02549014 -0.07160376 0.016437624 0.018609822 0.012051767
0.05715726 -0.053507805 -0.02017277 0.027351951 -0.081962325 -0.07072473 0.005495294 0.05555743
0.079898335 0.07402756 -0.071274355 0.006951266 0.047133893 0.019289767 0.044799305 0.015918532
-0.014789897 0.11779241 -0.09721837 -0.05444366 0.015752561 0.00076856354 -0.08462694 0.017464021
-0.005904422 -0.01426499 -0.062161576 0.102257125 -0.079020165 0.0049506743 0.012456108 -0.008261999
-0.08951697 0.0026019916 0.029970193 0.0137602305 -0.09242843 0.054526184 0.010530032 0.07308645
-0.040631156 0.10050215 -0.10990456 -0.012535246 -0.02805663 -0.04797885 -0.10022027 -0.011897127
0.028543677 0.048870414 -0.10196572 0.005500116 0.00058113644 -0.16862921 -0.10315161 -0.09766085
-0.056572597 -0.0329717 -0.017047785 -0.007985685 0.059651732 0.0041665044 -0.00029344636 0.02697448
0.019492302 0.010644779 -0.014245573 -0.0030349286 0.032392364 -0.0072022006 0.026620269 -0.028832903
-0.020905241 0.05142195 -0.002571868 -0.01785768 0.059356865 -0.09625918 0.1051514 -0.028356567
0.010834605 0.07039873 -0.0953926 -0.1068481 -0.0055097337 0.05991112 -0.024831658 0.06829892
-0.024168499 0.00796257 -0.021469513 -0.054729775 -0.010336795 -0.042548493 -0.06918784 0.08071453
0.0068224645 -0.03065003 -0.023153124 0.03342345 0.023767428 -0.0030376497 0.0075395647 0.14026438
-0.016783059 0.04186175 0.08759424 0.04008066 0.03350948 -0.04727415 -0.037193727 0.031611457
0.08298671 0.05257183 -0.0009045319 0.01050097 -0.021031242 0.11400511 -0.021586584 -0.12601388
0.049199864 0.00619407 -0.03345885 -0.016390368 -0.024123104 -0.01022018 0.061679162 -0.10583089
-0.013058539 0.03151673 0.015769806 0.017359793 0.04065564 0.021973347 0.024233049 0.02792734
-0.010040736 -0.030419419 0.002337275 0.009672781 -0.06224689 0.016968139 0.012172865 0.013146399
0.009477329 -0.006874154 0.02846992 0.10928927 0.013270581 0.021061918 0.0020967678 0.023795838
-0.000109415276 -0.056214042 0.0018529698 -0.0072237933 0.0044473596 -0.05949285 0.00391692 0.003079974

decoder.0.bias f4 [32]
00000000: 1895 bf3c b298 783d 6e0b 073e 2cc6 fb3c
00000010: 1b5a 14bc 696c 033d 4c7b 743d a269 d03c
00000020: 7933 3e3d 2198 233d 5013 093d 9909 bd3c
00000030: 5d5c a83c cb48 f13c 71af 0d3d 9252 693d
00000040: 6b30 573d 7369 c33c f2bb 643d 25c1 013d
00000050: 1e8c 6c3c 387b 7c3d 9b88 513d d947 3a3d
00000060: d9d0 633d bbfa f83c 2670 0a3c ec6c 873d
00000070: 7cc8 7f3c 52b5 5d3d f7e4 eb3d 45c9 dc3c
0.023386523 0.060692497 0.13187954 0.030734144 -0.009054686 0.03208581 0.059687898 0.025440995
0.046435807 0.039940003 0.033465683 0.023075866 0.020551855 0.029453656 0.034591142 0.05696351
0.05253641 0.023853993 0.0558433 0.031678338 0.014437703 0.061640948 0.051155668 0.045478676
0.055619095 0.030392995 0.00844959 0.06612572 0.015611764 0.054128 0.11518281 0.026951442

decoder.2.weight f4 [32, 16, 3, 3]
00000000: 68b9 b3bd 18f1 853d 93a0 d73d 7609 b9bc
00000010: c92e 063e 2e40 3fbd 2eb0 003e 4315 f33d
00000020: 73a4 fbbd c539 65bd 596d a53d 801a 913d
00000030: f110 3abd b557 383d 90d8 643b ea85 a53d
00000040: 8a64 cd3d e7a6 3ebd 0d19 193a 405c e5bd
00000050: d008 013b 9cd1 fc3c e04b f93c 19cc 8d3d
00000060: 5671 543d 475f 983d 052e 86bd ea2e 27bd
00000070: be53 b53c 865a d1bd daef d53d 172e 573d
00000080: 635c 26be 4d8e 003e 7198 85bd 6d0a 75bd
00000090: e50e c5bc 3388 d53c 86c9 89bc 3d70 a0bc
000000a0: f506 693b caed 993d 4705 93bc 6198 36bd
000000b0: c0e1 e93b 5068 803d 625d 83bd e7cf 0c3d
000000c0: 4333 e7bd 3ee1 393d a29a f63d 25e6 c4bd
000000d0: d78d c73d e389 8c3d 03b4 b83d 0094 fe3c
000000e0: 4199 333d 45fe 303e 1c0b 0ebb c943 ca3c
000000f0: 91df 5c3c 3a12 9abd a6f5 ca3d bbd0 4a3d
00000100: 882c 113d 46bf 39bd 358d 953d 46ec 3d3d
00000110: c612 243c 7fab 723c 797e 89bb 2093 8cbc
00000120: b5a4 b4bd 52a3 4d3d c7f8 993d e958 80bb
00000130: 8507 f73d cb3d 04ba 456c e13d d214 623d
00000140: 329c c7bd f43a b8bc f6df 493d 094c 80bd
00000150: be7a 963d 49f8 083c 710d aa3d 7002 29bc
00000160: e0fb c53c c27c e03d 6a42 4dbd 019f b3bd
00000170: e3f2 033d 5580 843c 8a94 82bc bed1 efbd
00000180: ba40 d4bb 8156 9e3d 72e7 a23c 552c 6e3d
00000190: 9cb6 1fbe d3fe 3b3d 8c59 e23d bbfb 1a3d
000001a0: a1bd 483d d0eb dbbd 1c04 1c3e 3f78 b9bb
000001b0: d0b1 6bbd a0e7 cc3c 2f6a 0f3c afc5 b0bc
000001c0: e4e8 5b3d 754d 26bd fcb3 5a3d 0661 bd3d
000001d0: 3cee 24be c165 90bd f352 60bc dd7f 283d
000001e0: f6ce 0f3c 887c ad3d fb33 f8bc 5315 ab3d
000001f0: 7dc6 23bc d4f4 cdbc b825 5d3d 8673 4fbd
00000200: 304f 463d 3c15 a43d fb22 51bc b35f 3d3e
00000210: b132 0cbe 3127 883d 549e 2d3e 558b 99bd
00000220: 75ca c2bc 89c6 353b 17a1 cfbd 2cda 123d
00000230: b0eb ef3c 49bb 853d 894d 843d 0917 a2bd
00000240: 9466 b03d a2bb 233c 995d 9c3d bd74 133e
00000250: bb6f 023e 1373 ee3c 3b79 ec3d 8607 883d
00000260: 9620 03bd 5d9c 323d e30e ab3d 6c8f ab3d
00000270: db4b 1b3e 0919 ce3d 2a54 b63d 6122 903d
00000280: 18d9 2a3e 4256 873d bae9 843c e0c5 c53c
00000290: b814 bdbd 6973 99bd 8fbd 003e 0b2a ca3c
000002a0: 55c4 013d 7ed5 10bd c80a fc3b 0eba 053d
000002b0: b332 7bbd 6ccd 9cbd b39d ef3a d50c 233e
000002c0: 1eea b3bd 3cbc d9bb e6f4 2d3d ba3a bcbd
000002d0: a570 e33c 7fc5 00bd fea1 b33c 39f0 6f3c
000002e0: 58c9 83bd a92d 43bd 823e b939 1d15 053a
000002f0: 78f2 303d 7c4f b9bd f01c d1bd 66dc 76bc
00000300: 0849 c4bc b1c6 81bd 8b19 a83d 5900 d2bb
00000310: c622 723d 67a8 913d 425e 95bd 6944 cdbc
00000320: 1915 94bc f5ea 583d ff31 e4bd d53c 6dbd
00000330: d3c0 d8bc 9add 9d3d 016b 563c 62a6 d4bd
00000340: 2b9f 343d 29fd c5bd 18af a3bd a971 f83d
00000350: 8a51 2ebc f2c7 973d 1b85 a7bc 2e09 103d
00000360: 669a 6b3d b209 013e 9dde 6b3d bce7 fa3d
00000370: b056 0b3e 8818 a83d 39f1 dd3c db83 ad3c
00000380: a0ba 5cbd 6c2b c03c 7834 d43c 82f4 32bc
00000390: 6546 923c fcae 773c 969c 83bd 1023 37bd
000003a0: 5b48 37bd 2300 49bc 9d69 d73d 26c7 d03c
000003b0: 0122 a73d 083a 433d 3385 57bd d29f b33d
000003c0: 748b 243b 35dc ffbc 4b58 43bd 3b9f 6f3d
000003d0: 34a9 8f3c 1c02 473d 8d92 8ebc 9a66 5ebc
000003e0: 9061 993d 01dc 1bbd 4025 a2bc 4bfc 03bd
000003f0: efd1 413d 8e56 dd3d 1c37 653c 24d6 7c3c
-0.08775598 0.065401256 0.10528674 -0.02258752 0.13103785 -0.046692066 0.12567207 0.1186929
-0.122872256 -0.055963296 0.08077497 0.070851326 -0.045426313 0.04500552 0.003491912 0.08082183
0.10028942 -0.04654589 0.00058402197 -0.11199236 0.001968909 0.030861668 0.030431688 0.06923694
0.051865898 0.07440048 -0.06551746 -0.040816225 0.022134658 -0.10222344 0.10446139 0.05253419
-0.1624618 0.12554283 -0.065232165 -0.059824396 -0.024054954 0.026065921 -0.016819727 -0.01958477
0.0035557125 0.07516058 -0.017946852 -0.044578914 0.007137507 0.06269896 -0.06414296 0.03437796
-0.11289074 0.045380823 0.120412126 -0.09614209 0.09743851 0.06862237 0.090187095 0.031076431
0.043847326 0.17284496 -0.0021674102 0.024690526 0.013481037 -0.07523008 0.09910135 0.049515467
0.03544286 -0.04534843 0.07302324 0.046367906 0.010014242 0.014811396 -0.004195985 -0.017159998
-0.08820478 0.050204583 0.07518154 -0.003916849 0.12061981 -0.0005044608 0.11006979 0.055195637
-0.09746589 -0.022489049 0.04928585 -0.062645026 0.0734763 0.008359977 0.08303345 -0.010315523
0.024167955 0.10961296 -0.050112166 -0.08770562 0.032214057 0.016174475 -0.01593997 -0.11709927
-0.0064774426 0.07731343 0.019885752 0.058147747 -0.15597004 0.045897316 0.11052236 0.037837725
0.04900897 -0.10738337 0.15235943 -0.0056600864 -0.057542622 0.025012791 0.0087533435 -0.021578638
0.0536889 -0.040601213 0.053394303 0.092470214 -0.16106504 -0.07050658 -0.013691652 0.041137565
0.008777371 0.08471018 -0.030298224 0.08353677 -0.009996054 -0.025141157 0.05399105 -0.05064728
0.048415363 0.08011863 -0.012764688 0.18493538 -0.13691212 0.066481 0.16954929 -0.074972786
-0.02377818 0.0027736744 -0.10138147 0.035852596 0.02928719 0.065298624 0.06460101 -0.0791455
0.08613315 0.009993466 0.0763504 0.14400001 0.12737934 0.029107606 0.115465604 0.0664206
-0.0320135 0.04360615 0.08352449 0.08376965 0.15165655 0.10063369 0.08902772 0.07037807
0.16684377 0.06608249 0.01622473 0.024142206 -0.092324674 -0.07492716 0.12572311 0.02467825
0.031681377 -0.035359852 0.007691715 0.03264814 -0.061327647 -0.076563686 0.0018281251 0.15922864
-0.08784889 -0.0066447537 0.04246988 -0.09190889 0.027763674 -0.031438347 0.02192783 0.014644676
-0.06434888 -0.047650967 0.00035332522 0.00050766935 0.043199986 -0.090483636 -0.102105975 -0.0150671955
-0.023960605 -0.063367255 0.08207997 -0.006408733 0.059115194 0.07112198 -0.07293369 -0.025057035
-0.018076466 0.052958447 -0.111423485 -0.057919342 -0.026459133 0.07708283 0.013087035 -0.103832975
0.044097107 -0.09667427 -0.07992381 0.12131054 -0.010639558 0.074111834 -0.020449212 0.035165004
0.057520293 0.12601355 0.057585347 0.12251231 0.13607287 0.08207804 0.027092563 0.021181038
-0.053888917 0.023458205 0.025903925 -0.010922553 0.017855832 0.015117403 -0.06426351 -0.044711173
-0.044746738 -0.012268099 0.10518191 0.025485586 0.081607826 0.047662765 -0.052617263 0.08770718
0.0025107535 -0.031232933 -0.047691625 0.058501463 0.017536737 0.048585996 -0.017403865 -0.013574267
0.07489312 -0.03805161 -0.019793153 -0.032223027 0.04731935 0.108075246 0.01399019 0.0154319145

decoder.2.bias f4 [16]
00000000: c561 dd3d 0608 443d 8670 163a 34bb ec3b
00000010: b653 9dbd 6510 17be ce38 c73c f245 9a3d
00000020: f8e4 c73d ec8b 1c3d 812d e93d 5285 773d
00000030: 48e7 413d 0563 fabc 8a11 163d 49bc 243d
0.10809664 0.047859214 0.0005738813 0.007224465 -0.07681982 -0.14752348 0.024319079 0.07532872
0.09760469 0.038219377 0.11385632 0.06042988 0.047339708 -0.030564794 0.03663782 0.040218625

decoder.4.weight f4 [16, 1, 3, 3]
00000000: 20ce 9cbc 365d 8cbe 44c2 4abe bedb 30bc
00000010: 9e00 b6be 73b4 9abd d5d9 0ebe cf78 babd
00000020: c3e0 33bd ffab 75be 4ef0 a6be 8f8b 84bc
00000030: dbad 83be 70f3 d6be 7290 36be 2683 873d
00000040: fb46 7bbe 603b 02be a89f 51bd eb2c cfbd
00000050: 400c 8ebd 463a 8dbe 95db 6e3d 8797 583e
00000060: eecf c5be 60b2 b4be 2380 93bd 5960 30be
00000070: 2880 abbe edd2 75bd 22b1 ae3d ae65 bdbe
00000080: e247 9bbd 1ac1 323e 1c45 9abd 0014 ec3b
00000090: eeb9 6b3c ef2a 003e f9a5 4d3e 8e77 7d3e
000000a0: 6ab1 c3bc 4836 253e 55df af3e ce59 cb3e
000000b0: d31d ae3e 74ef 38bd 1534 31be 14bc 6bbe
000000c0: 4f52 48be 0cc3 943e af7d a3bb bd99 ebbd
000000d0: 8520 ae3e 8aad 3e3e af3e 2a3e 4b2a 9b3e
000000e0: c039 19be a08c 903e 6c9a fc3e 349e 51be
000000f0: 6ca4 98bc c874 543e 09a7 58be b258 59bd
00000100: 2cfa 51be 5b6a 68be a9b0 91bd ecdc 73be
00000110: d5e2 c6be a073 2d3e c2af 413e 758b 9c3c
00000120: 553e 223e b04d fd3b 98a6 c5bd 3247 8cbe
00000130: a1cf e3be a1ee 70be 25f9 d2bc 3806 e1bd
00000140: ea37 f63b 6e1e 253e 040d ebbd 4a27 8abe
00000150: cecf 723e 554d 273e 64d0 70be 9ceb ff3c
00000160: 1320 41be d6e0 88be 7b8e d63d 41cb f53d
00000170: 1727 5c3d 34dc b1bd ba6c bfbc 580d 32bd
00000180: 046c 93be 4fee bebe 9178 11be 9fd6 5cbe
00000190: 3e59 93bd 01e8 703e 8950 c2be 9207 17be
000001a0: 5483 953e ac06 e4bc b2db 073e c618 0b3a
000001b0: 4bd9 9cbe 0894 aebe af30 88be de20 c7bd
000001c0: a93c 1b3e 9ce4 92be 9a84 29be 54f0 48bd
000001d0: c8fb 12be 370a 8e3e b42d c03e 1368 303e
000001e0: 343d 6c3e 2733 043d 9b32 40bd e3b6 39be
000001f0: ca86 c8be f33f 1bbe c0ba b6bd 569a 843d
00000200: 6afb 883e b81a 353e 6a4e c53e 1ce8 fc3e
00000210: 44e0 873e f9c5 8d3e a18d 723e cbdb 76be
00000220: e901 eabd 82b2 f03d 4849 c5be 9daa adbe
00000230: 8c62 d53c 8099 efbd a19b 423e b30a 31bd
-0.019141257 -0.27414864 -0.19800669 -0.010794578 -0.35547346 -0.07553949 -0.13950284 -0.09105074
-0.04391552 -0.23991393 -0.32605213 -0.016179828 -0.2571858 -0.41982603 -0.17828539 0.066168115
-0.24538796 -0.12717962 -0.05117765 -0.10115989 -0.0693593 -0.27583522 0.05831488 0.21151553
-0.386352 -0.3529234 -0.072021745 -0.17224254 -0.33496213 -0.060015608 0.08529879 -0.36991638
-0.0758207 0.17456475 -0.07532713 0.0072045326 0.014387591 0.12516378 0.20082845 0.24752638
-0.023888309 0.16133988 0.34350076 0.39716953 0.3400713 -0.045150235 -0.17305024 -0.23020965
-0.19562648 0.2905506 -0.004989348 -0.115039326 0.34009185 0.18620887 0.16625474 0.30305704
-0.14963436 0.28232288 0.49336565 -0.20470506 -0.01863309 0.20747674 -0.21157469 -0.053063102
-0.20505589 -0.22696821 -0.071137734 -0.23814744 -0.38844934 0.16938639 0.18914703 0.019109467
0.1584409 0.0077302083 -0.09650916 -0.27398068 -0.44494346 -0.2352853 -0.025753567 -0.10987514
0.0075139897 0.16124889 -0.11477092 -0.269831 0.23712084 0.16338094 -0.23516995 0.031240277
-0.18859892 -0.26734036 0.10476395 0.12001658 0.053748216 -0.086845785 -0.023367275 -0.043469757
-0.28793347 -0.3729119 -0.14206149 -0.21566246 -0.07194756 0.23526002 -0.37952068 -0.14748982
0.29201758 -0.027835213 0.13267401 0.0005306121 -0.3063453 -0.34097314 -0.26599643 -0.09723066
0.15159859 -0.2869004 -0.1655449 -0.04905732 -0.1435386 0.27742168 0.3753487 0.17227201
0.23070222 0.032275345 -0.04692326 -0.18136172 -0.39165336 -0.15161113 -0.089223385 0.0647475
0.26754314 0.17685974 0.38536388 0.49395835 0.2653829 0.27690104 0.2368684 -0.24107282
-0.114261456 0.11752798 -0.38532472 -0.3391923 0.026047967 -0.116992 0.1900468 -0.043223094
