examples/rnn/rnn_mnist.pth (torch, 88363 bytes, 6 tensors)

rnn.weight_ih_l0 f4 [128, 28]
00000000: 1755 94bc 02bc aa3d ee95 233d 4df3 cbbd
00000010: 7f6e 0abe d3d8 d33c 44ec 983d 67c0 a8bd
00000020: cd22 fbbd cd59 11be 6593 36be 7063 22be
00000030: c56f 1ebe 4633 9bbe f304 7fbe fee2 83be
00000040: add9 10be 6046 26be 61e0 25be 061d a0bd
00000050: c2f9 afbd a7be 2d3d 1169 f33c de21 a63d
00000060: 2c74 983d f4da aa3d eaab 08bd 945a 2cbd
00000070: 235d cdbb 130d dcbd 1fae dcbd 7fe7 b8bd
00000080: 023e 713d 8201 b43d cd0e 573e 933d dd3d
00000090: 62ed 563e 2988 283e 4b1a 263e cfa2 453e
000000a0: d9e4 0e3e 59e1 333e 9f42 2d3d 935b 2c3e
000000b0: e6a6 e5bc f573 053d cbdc 09bd 43c4 563d
000000c0: eeb2 9b3d f3b8 d53d dade 8b3d dff8 d53d
000000d0: 5e8d 183c f510 033d 46f2 8fbd 5b04 5f3c
000000e0: 8a20 9b3d 50a6 c93d 0952 233e 1db7 a03d
000000f0: 8371 8dbc d5f6 abbc c87b 89bd eca0 833c
00000100: db90 13bd 0e49 943a 54e1 573e 8ab7 553e
00000110: 059d 853e b0c6 9c3e 0215 253e 107a c73d
00000120: f684 2a3e bdef 1b3e 837c 903e cb33 5c3e
00000130: 2f38 413e eda7 8d3b 872c a9bd ff0b 0ebd
00000140: 7e5b d43c 0cae 0e3d 76c1 c03d f2fa af3d
00000150: 45b0 dbbc e885 b3bd cd9f 48bd 7102 3f3d
00000160: c11a 823b 422b fdbc f0d5 bc3d 9c21 97bd
00000170: 7fb1 323d cb40 623c b8ab 6abd b733 e1bc
00000180: 3c21 923c 740c 9b3d 44b9 1a3e eaf3 ce3d
00000190: 364c 7c3d 0621 793d 549a 053d 790f ba3d
000001a0: 0332 dc3c 94bb 2b3e cff2 ac3d 52dc fa3d
000001b0: 1a18 ec3d eed7 653d c08b 8fbd 97df 443c
000001c0: f9cf 1fbe 3a47 2dbe 1b13 a9bd d6df b5bc
000001d0: 259f 52bd ae1e cabd ad3e 6bbd bba8 cabc
000001e0: 352d 6c3d 5380 783d 0f0e f43d ab5d 293d
000001f0: ebaa d53b c058 01bd 5cd3 5bbe 54a9 17be
00000200: c271 0dbe aa27 27bd 42de 393c 956d fc3d
00000210: 2fe7 e83d 36ce af3d d02f 213b e03e 983c
00000220: 91c5 92b9 33f2 d1bc 6079 13be 8bad 64bc
00000230: 04e9 1fbe 06b7 c0bd ce68 12be c5cd 0bbd
00000240: 4c8c 6fbd 8e1f b83d 99e6 cb3d 9115 0a3e
00000250: fd09 033e 246a 94bc 0eb1 2dbe 8b92 0fbe
00000260: c59c 6ebe 2381 2cbe d918 bb3d 17ac cd3d
00000270: 12a6 d83d 3b2a 6f3b 90ed d6bd 1e4f 5fbd
00000280: f123 1fbe 40c4 3b3d 268d c1bd f42a a23d
00000290: 87b1 d43d 16e7 6d3d dc5e 13be 1043 86bc
000002a0: f23c d8bd c1ec 003d 5b80 1d3d 7073 90bd
000002b0: 5fe6 8a3c a170 f23d 1990 e83d fadc c03c
000002c0: 4b41 863d 95e4 0abb 6dc3 b7bc 1abc 53be
000002d0: f3e2 2abe 1d80 7bbe 55a2 433d 6aa5 533e
000002e0: a494 7b3e 2a72 833e e860 5f3e 42f7 593e
000002f0: 2116 953d af8f eb3d f8c3 993c e1b2 a5bc
00000300: 38b7 263d 4bca a03c 3197 37bc 18a7 883c
00000310: 4494 16bd 0f4a 19bd 869e 5e3d 6d98 7cbd
00000320: 0158 e83d fa86 153e f0b2 023e 6ffe b53d
00000330: 60a3 e63d a414 233e c9ff 193e f260 733e
00000340: 14f3 a13e 6929 833e b210 023b e48e 9abe
00000350: 7700 cabe 399a 27be 2273 3f3d 537b f2bb
00000360: 085d 8e3b e3e0 8abc 66e2 b1bc bc01 723d
00000370: 8419 a83d 188c 80bd 87d9 71bd a033 c03d
00000380: 9f77 ad3d db8e 0a3d 809f 7ebc 7fa2 d73d
00000390: a11d e53d 7eea 9d3d f24c d73d 22c4 0e3e
000003a0: a10b ea3d 4161 543d c6e6 403e 925e c3bd
000003b0: 37d5 75be 027c 76be 2c1c 7dbe ce4d 17bd
000003c0: b2cd bfbc 4570 0c3e cfbf 093d a898 dbbd
000003d0: d455 e3bd bbc0 24be dafe 3cbe 6973 c9bd
000003e0: 2890 e7bd b70a 32bd 5e55 7abd 9a44 9b3d
000003f0: 9d3f 2d3e e479 043e 2871 0a3e 7545 0dbb
-0.01810698 0.08336641 0.039937906 -0.09958515 -0.13518713 0.025860226 0.07466939 -0.08239823
-0.12262497 -0.14194413 -0.17829664 -0.15858245 -0.15472324 -0.30312556 -0.24904232 -0.2575912
-0.14145537 -0.16237783 -0.16198875 -0.07818036 -0.085925594 0.04241815 0.029713186 0.081119284
0.07444033 0.08342543 -0.033367075 -0.04207857 -0.0062672063 -0.10744681 -0.107753985 -0.090285294
0.058897026 0.0878935 0.2100174 0.1080276 0.20988992 0.16458191 0.16220967 0.19300388
0.13954486 0.17566432 0.042299863 0.16831808 -0.028033685 0.03258129 -0.03365783 0.052433264
0.076024875 0.10435667 0.06829615 0.10447859 0.009311048 0.031998593 -0.07028632 0.013611878
0.07574566 0.09846175 0.15949263 0.07847426 -0.01726604 -0.020991722 -0.067130625 0.016067944
-0.036026817 0.0011313276 0.2108205 0.20870796 0.2609636 0.30620337 0.16121295 0.097400784
0.16652283 0.15228172 0.28219995 0.21504132 0.18869089 0.004322997 -0.08260446 -0.03467941
0.025922533 0.034833953 0.094119 0.08592786 -0.02681745 -0.08765775 -0.048980523 0.046633188
0.0039704745 -0.030904416 0.09220493 -0.07379457 0.043626305 0.013809393 -0.05729267 -0.02749048
0.017838113 0.075707346 0.15109736 0.10105117 0.061596118 0.06082251 0.032617882 0.090849824
0.026879316 0.16770774 0.084447496 0.12249054 0.115280345 0.05611413 -0.07009077 0.012016199
-0.15606679 -0.16921702 -0.08255597 -0.02220146 -0.051421303 -0.09869133 -0.05743282 -0.02473866
0.0576603 0.060669255 0.11916744 0.041349094 0.006520619 -0.03157878 -0.21467346 -0.14810687
-0.13812926 -0.04080931 0.011344494 0.123255886 0.1137222 0.085842535 0.002459515 0.018584669
-0.00027994488 -0.025628185 -0.1440177 -0.0139573915 -0.15616232 -0.09409909 -0.14297792 -0.034131784
-0.058483407 0.089903936 0.099560924 0.1348479 0.12796779 -0.018117018 -0.16962072 -0.14020745
-0.2330199 -0.16846137 0.09135599 0.10042589 0.105785504 0.0036493677 -0.1049453 -0.05451881
-0.15541054 0.045841455 -0.0945075 0.07918349 0.10385423 0.05808171 -0.14391655 -0.0163894
-0.105584994 0.031475786 0.038452487 -0.07053268 0.016955553 0.118378885 0.113556094 0.02354287
0.065554224 -0.0021193374 -0.022432053 -0.20677224 -0.16688137 -0.2456059 0.047762234 0.20668569
0.2456842 0.25673038 0.2181431 0.21285728 0.072796114 0.11502015 0.018770203 -0.020226898
0.040702075 0.01962771 -0.01120548 0.016681239 -0.03676249 -0.037424143 0.0543504 -0.061668802
0.113449104 0.1460227 0.12763572 0.0888642 0.1126163 0.15925843 0.1503898 0.2376745
0.31630766 0.2561753 0.0019846377 -0.30187142 -0.3945348 -0.16367425 0.04674066 -0.0073999553
0.0043445863 -0.016952937 -0.0217144 0.059083685 0.08207992 -0.06276721 -0.05904534 0.09384847
0.084700815 0.033827644 -0.015540957 0.105290405 0.11187292 0.077107415 0.10512723 0.13942006
0.11427999 0.05185056 0.18838033 -0.09539522 -0.24007116 -0.24070743 -0.24717778 -0.036939435
-0.023413513 0.13714702 0.03363019 -0.10722476 -0.11100355 -0.16089146 -0.18456593 -0.09836466
-0.113067925 -0.04346725 -0.06111657 0.07581444 0.16918798 0.12937123 0.13519728 -0.0021556292

rnn.weight_hh_l0 f4 [128, 128]
00000000: 2793 063e e2bd 083d 6cf5 f73d 1885 a23b
00000010: ee44 883c 6cf4 703b c7f0 4cbd a90b e73d
00000020: 109f cbbc 3f43 0f3e 4cb1 17be 12a8 253b
00000030: 3746 183e 527d bd3d c00d c83c 3cd0 c53d
00000040: 5630 f63d 2644 22bd ca24 d2bd bbe6 9c3d
00000050: e1c1 3fbe dd55 7bbe 5fdc 32bd 1f80 98bc
00000060: 8974 813b 4b5a 61bd a2f3 463d 6fd2 bbbd
00000070: 28b7 00be bec6 3e3d b9bb 1cbc 624c 35bd
00000080: a418 b1bb ddb2 823d d91f 29bc d37d 053e
00000090: 2f71 46bd 40e1 8f3d c07a c3bd c69c 0c3e
000000a0: 7089 a43d 6384 0fbd 4dda dabd ec7a 0e3e
000000b0: d07f afbd 5bbb 913c 8d2d 5f3d 6320 973d
000000c0: 690f 45bd 0c3f 6d3d f6d9 26bd 50c1 07bc
000000d0: 3c1a 46be 53a8 18bb cb09 f6bd c2b6 4fbd
000000e0: 7066 723e e45a 003e 2dea 7cbe 2b79 423d
000000f0: cb3e 523d ff9b 883d 66a2 c23d 67d1 90bd
00000100: fbc1 d33d 6878 44bd 1f98 08bd 57f4 363e
00000110: 63fb b7bd 4e1f 37be 6c6e df3d c5aa a03d
00000120: 6196 dc3d 7864 613b bfcc 113e d604 9bb9
00000130: 673f 95bd 087f 873c 40d6 133d c6f0 30bd
00000140: aa84 c4bd 560a b63d 8236 b33d 5b18 013e
00000150: d9b1 40bd e628 cc3c 49a2 16be b423 b5bd
00000160: 6642 b83d 71a3 6a3d f0ce bb3d 0270 9c3d
00000170: d8b1 e2bd a481 d3bb 1cab 76bd 8002 28be
00000180: 6d6c 13be 3290 06be fb33 dbbd 6f18 e5bd
00000190: ca07 263a aa2c 163d 3214 5cbd a6eb 943c
000001a0: ab11 abbd a1a6 17bd ebe3 f1bd 2db1 163e
000001b0: 29ed 0b3e 682b 173d c963 cb3d 03f6 b1bd
000001c0: e46f a13d 1c91 2cbe ec7b 9abd b9eb 54be
000001d0: a4e6 eb3c f219 7dbd 9806 22bd 1f5f 8dbb
000001e0: 58c4 bd3d d78c 23be 6e4f 0a3e 45fe eabd
000001f0: cf0c e1bb 4cfd 28be 46d3 bcbb 3747 d3bd
00000200: 04b2 0a3d fe00 8a3e f808 f6bb 6e69 333d
00000210: 50b8 013e 067a 0e3e c299 213c 90ad 54bd
00000220: 018d 35bd 8b06 203c 5948 c6bd 189a fabd
00000230: bacf 3c3c b33f bd3d 9a08 13be 7cff 12be
00000240: 650e 243e 7ec4 4abd fb26 053d fde8 66bd
00000250: fa2d b9bd bf40 283c 34bf 8dbc 65bb 93bc
00000260: 7acf a8be 4a50 38bd d9c1 b6bd 95fd a3bc
00000270: fcbc af3c 013f b5bd 309b f3bd d5c0 a3bd
00000280: f2f2 f23d 792c 84bd 80c7 67bb 01c9 53be
00000290: dd1e 24bc 2b61 9cbd 44ec 64bd e252 603e
000002a0: 4522 84bd 3995 4bbc a416 5fbd e0c1 babd
000002b0: e6a4 d0bc a8c6 e5bc a966 023e fbd9 4dbd
000002c0: 7f92 013d 2ecf dc3a 503a babd 4033 47be
000002d0: ad9d d73d cc28 b43d cc23 74bd fef9 7e3d
000002e0: 9ae9 c03d 1216 033a 2423 b43d 8d0a 7b3d
000002f0: d31f 5dbe 9f8b c9bc d508 89bd 5df5 213d
00000300: 003f d53d 5acc 293e b25d d33b 3d17 06be
00000310: a441 ccbd 6f0c 0dbd 1b70 24be 0662 923d
00000320: 72b8 a83a 29f5 af3d 56a0 6b3c 191b fcbc
00000330: 04e2 1dbd b47f a63d cc1b 34bd f3d5 5d3c
00000340: 9fc4 8dbe 8035 df3c 2d06 6c3d 6100 0f3e
00000350: 2653 67be 3cb0 fabd 062c 933c 8fc9 0bbe
00000360: f9e4 91bd c5b8 f3bc 51bd 833c 1b44 013e
00000370: 678a 04be 63e1 bbbd 7fb1 ce3c ab90 7c3d
00000380: 5dbb 3f3d b1d6 2a3b a3a2 42bd 7f6d 203d
00000390: 18f0 6cbb 82fc 9f3d 2db0 4d3b 3626 ce3d
000003a0: 6469 473c 00e2 87bc a634 8bbc 6f36 b2bd
000003b0: 1d2c 0ebd 6f62 24be 8a8a 063d b4b7 0fbe
000003c0: 6481 37bd e1af b03d 3070 2b3e 8386 d73d
000003d0: 22da 4dbd 4e18 51be 6a7d 0ebe 1101 c13d
000003e0: 53ab 883b 9cc5 463d c69c 0bbe f2ad 7fbd
000003f0: 4d26 b9bd 8f4b 023c 41ce 7a3e 5d77 bbbd
0.13142072 0.03338421 0.121073574 0.0049597137 0.01663443 0.003676678 -0.05003431 0.11281521
-0.02485612 0.13990496 -0.14813727 0.002527718 0.14870535 0.092524186 0.024420619 0.09658858
0.12020938 -0.039615773 -0.10260923 0.07661196 -0.18726303 -0.24544473 -0.043667194 -0.01861578
0.0039506597 -0.05501775 0.04857219 -0.091709964 -0.12569869 0.046576254 -0.009566241 -0.044262297
-0.0054045487 0.06381772 -0.0103225345 0.1303628 -0.048447784 0.07025385 -0.09544897 0.1373168
0.080340266 -0.035038363 -0.10686169 0.13914078 -0.085693 0.017789533 0.0544868 0.07379224
-0.0481104 0.057921454 -0.040735207 -0.008285835 -0.19345945 -0.0023293688 -0.120135866 -0.0507114
0.2367189 0.12534672 -0.24698706 0.047478836 0.051329415 0.06670379 0.09503631 -0.0707119
0.10339733 -0.04796639 -0.0333482 0.17866646 -0.08983495 -0.17883036 0.10909733 0.07845072
0.1077087 0.003439216 0.1423826 -0.00029567507 -0.07287484 0.016540065 0.036092997 -0.04319837
-0.09595616 0.0888869 0.08750631 0.12606947 -0.04704461 0.024921846 -0.14710344 -0.088447005
0.089970395 0.057284776 0.091703296 0.07638551 -0.11069077 -0.0064546634 -0.060221776 -0.16407204
-0.1439683 -0.13140944 -0.10703274 -0.11186301 0.0006333558 0.03666369 -0.053730197 0.018178772
-0.08352979 -0.037024144 -0.1181105 0.14716025 0.13664688 0.03690663 0.09931142 -0.08689501
0.078826696 -0.1685223 -0.075431675 -0.20793046 0.028796501 -0.06179232 -0.03955707 -0.004314318
0.09265965 -0.15971695 0.13506863 -0.11474279 -0.006867982 -0.16502875 -0.0057624904 -0.103163175
0.033861175 0.26953882 -0.0075083934 0.043801717 0.12667966 0.13913736 0.009863319 -0.051923335
-0.044323925 0.009767185 -0.09681768 -0.12236422 0.011524135 0.09240665 -0.1435875 -0.14355272
0.16021116 -0.049503796 0.032507878 -0.05637454 -0.090419725 0.010269343 -0.017303087 -0.018033693
-0.32970792 -0.044998445 -0.08923692 -0.020018378 0.02145242 -0.08849908 -0.11894834 -0.07995764
0.118627444 -0.06453795 -0.0035366714 -0.20682146 -0.010017124 -0.07635721 -0.055889383 0.21906617
-0.06451849 -0.012425714 -0.05446495 -0.0911901 -0.025469255 -0.028048828 0.12734474 -0.05025671
0.03163385 0.0016846412 -0.090931535 -0.19453144 0.10528121 0.08796844 -0.05960445 0.06225013
0.09419556 0.0005000542 0.08795765 0.06128936 -0.21594171 -0.02460271 -0.06691138 0.039540637
0.10412407 0.1658186 0.0064503783 -0.13094802 -0.099734575 -0.034435686 -0.1605839 0.07147603
0.0012872352 0.085916825 0.014381489 -0.03077464 -0.038545623 0.08129826 -0.04397182 0.013539779
-0.27689072 0.02724719 0.057623077 0.13964988 -0.22590312 -0.12240645 0.017965328 -0.13651107
-0.07123751 -0.02975119 0.016081484 0.12623636 -0.12943421 -0.091738485 0.025231121 0.061661404
0.046809543 0.0026067907 -0.047518384 0.039166924 -0.003615385 0.07811834 0.0031385527 0.10065882
0.012171123 -0.016587257 -0.016992878 -0.08701789 -0.03471004 -0.16053174 0.032846965 -0.14034921
-0.04480113 0.08627296 0.16742015 0.10523703 -0.050256856 -0.20419428 -0.13915029 0.094240315
0.004170814 0.0485283 -0.13634023 -0.062421747 -0.090405084 0.007952585 0.24492742 -0.09153626

rnn.bias_ih_l0 f4 [128]
00000000: 1ee2 abbd dd84 0b3e 6ef5 a7bd 3018 b83d
00000010: dd33 b63d feb2 833d f944 913d 6e9a 87bd
00000020: d9a2 57bb 8e6b 16be 1c7f 6c3d c67b b1bd
00000030: cbe3 06be 1482 c43d b8ca 2b3d 02ed 10bd
00000040: 7361 c6bc 7ea5 fcb9 49a7 48bd 283a 513b
00000050: b3e2 883c bcf2 313c 5cc4 c13c 1b37 963a
00000060: c827 a5bb dcac 8ebd c910 a13c ae2d 2e3d
00000070: 62c9 143d b9e1 a93d 79e3 c2bd 4839 10bd
00000080: c23c 893d d5a7 013c cdfa afbc 2d3b 19bd
00000090: 396a 043d 069a a83c c895 c53d 4f2c 913d
000000a0: 5d45 b73c c5a0 d13c c4f5 aebd b572 8cbd
000000b0: faf4 d6bd b1a8 b5bd d9bd eebd 5077 b73d
000000c0: 53b7 403d e8d4 99bc 8e14 0cbe ffe1 863b
000000d0: 748e b03d 3e3e 903d ecff aa3d 8906 c73d
000000e0: 7f72 aebd 5389 efbd 7414 24bd 08e3 d73d
000000f0: 3094 30bc ee6f 0e3c 1506 98bd 2c0e 14be
00000100: 18d7 7cbd 1e3c 7cbd 7f93 063e c5c6 8abd
00000110: 2889 8ebc 0cf3 3a3e 4caf 31bc bf10 1d3d
00000120: 3032 0a3b 8c52 a33d d9b5 843c f812 983c
00000130: 35cd d5bd dd64 50bc 4d24 bc3c 0352 dbbc
00000140: 0e69 ebbc 2176 46bd 6ade b23c 7185 de3d
00000150: b921 2dbd 80eb 40be 1a5f a6bc dbbd 4d3e
00000160: ac57 b5bd a113 4dbd a75d a33c eaf0 903c
00000170: 5d78 f63d d42d 9a3c ff55 aabd a94c 98bd
00000180: 1842 cabb d0b6 06bb 0a7b b83d 1dd3 3f3d
00000190: 8e5c a5bd 4b94 24bd fad5 813d 5f82 073d
000001a0: 12ae f3bc c55c 983d c439 e23c e566 af3c
000001b0: 28e9 14bd e3e1 ebbb 8f88 9a3b 16e4 0c3e
000001c0: 6588 af3c 4a94 69bd ac8a ef3c 3c16 963d
000001d0: ab59 3dbd 7a9f f53d b217 e03d 30a8 8ebd
000001e0: b3df cbbc bf9d 653d 33c4 a73d 4d0d ce3c
000001f0: b1d6 15bd 28f9 0d3e 322f 2f3d e712 c23c
-0.08392738 0.13624902 -0.08201109 0.089889884 0.08896611 0.064306244 0.070932336 -0.06621252
-0.0032903461 -0.14689466 0.05773841 -0.08666186 -0.13172834 0.09595123 0.041941375 -0.03538228
-0.02421639 -0.00048188487 -0.04898766 0.0031925533 0.016709661 0.010861095 0.023653202 0.0011460515
-0.0050401427 -0.06966564 0.019661324 0.042524032 0.036324866 0.08295006 -0.09516043 -0.035210878
0.06701042 0.007913549 -0.021481896 -0.03740995 0.032327864 0.020581257 0.09647709 0.07088529
0.022371942 0.025589356 -0.0854297 -0.06857816 -0.10495944 -0.08870066 -0.11657304 0.08958304
0.04704983 -0.01877828 -0.13679716 0.0041162963 0.08620921 0.07043122 0.083495945 0.09718043
-0.08517932 -0.116961144 -0.040058568 0.1054135 -0.010777518 0.008693678 -0.07423035 -0.14458531
-0.061728567 -0.06158077 0.13142203 -0.067761935 -0.017399386 0.18256778 -0.010845017 0.03834605
0.0021087043 0.07974729 0.016199993 0.018563733 -0.10439531 -0.01271936 0.022966528 -0.026772505
-0.028736617 -0.0484525 0.02183457 0.10865296 -0.04226849 -0.18839836 -0.02030902 0.20091955
-0.08854613 -0.050067548 0.019942118 0.017693002 0.12034676 0.01882068 -0.08317184 -0.07436497
-0.00617243 -0.0020555742 0.09007843 0.046832193 -0.08074294 -0.040180486 0.06339641 0.033083316
-0.02974609 0.074395694 0.027615435 0.021411369 -0.036355168 -0.0071985587 0.004715986 0.13758883
0.021427343 -0.057026185 0.029240929 0.073284596 -0.046228092 0.11993308 0.109420195 -0.06965673
-0.024886942 0.05605864 0.08191719 0.025152827 -0.0365817 0.13864577 0.04276962 0.023690654

rnn.bias_hh_l0 f4 [128]
00000000: 0d99 2b3d 987b 163e ed33 e2bd 187e 14bd
00000010: 0c21 733d 2a13 0bbb 6d86 0cbd 1388 51bd
00000020: 213a 403d 3db7 9bbd 3bd4 b63d 4aed 07be
00000030: 1fa5 1abd 5d35 f63d 545c 143e 7598 da3a
00000040: c1f8 6ebd 891c 14bc 6cfb e23c 1234 483d
00000050: c977 65bd 8f29 e3bc 66af 05be e9a2 b13d
00000060: 606b e33d 31cf 7d3d e16b e9bc 1ff6 ef3b
00000070: 3191 81bd f1af acbc a9a3 c3bc e0de a6bd
00000080: 7fd6 28bd 526c cabd 076e cbbc 7d84 81bd
00000090: 6f5a 753d 79bf d33d d142 063e 89c4 fe3b
000000a0: 2538 bfbd 6f5f 473d a7e5 bdbd 358c 493d
000000b0: 5c9b 8ebd a3e6 e5bd ee29 c73c 1502 a03d
000000c0: 4be5 433d 7e22 37bd f84a fbbd bc6c 043c
000000d0: b4c2 df3d 91d1 8c3d ab34 82bd 2c77 833d
000000e0: 8b1f d9bb f2b3 b3bc bb0d 763b 253e 3ebd
000000f0: 4cca 06be 638d 1dbe 7bb4 cabd ec37 aabd
00000100: 3c9e bb3c fa72 25bd f65d f93d 88b5 c1bb
00000110: 979c c8bd 2b4c be3d da2a dcbd 04ae 19bd
00000120: 2120 453d 96ef 193d b8ec a0bc 2d20 96bd
00000130: 3eb9 0bbe 6ab6 fbbb 1dff 983c fde7 bb3c
00000140: 5bca 133c 568e b7bc 5fa6 b03c 2f0a f83d
00000150: 43a3 12be 61d5 40be 19aa 90ba d219 e73d
00000160: 0655 1cbe b1fe b7bd 3f36 35bc 25cf 303e
00000170: 2e36 a33d fe85 28b9 3c56 c8b9 daaf 0dbd
00000180: f740 2b3d d94c 4fbd 6324 e93d f77b 64bd
00000190: 7314 07bd 70c2 8cbd 9b19 923d 57ae 9f3b
000001a0: d37f bfbb e491 753d 72a2 09bd 6e66 223d
000001b0: 947e d5bd a52f c4bd b1d9 9cbd d46f 003e
000001c0: 143e cebc 8c7b f9bd 4455 823d 6b44 723c
000001d0: 60d7 a0b7 c7f3 053d c484 ff39 3a2b 83bd
000001e0: 24a4 943d 8e98 4fbd 518a 0abd 60fd 28bd
000001f0: 6095 a93c 606f 603e f1de 2d3d 1033 adbd
0.041894007 0.14695585 -0.1104506 -0.036253065 0.059357688 -0.002122114 -0.034307886 -0.05115516
0.046930436 -0.07603309 0.089271985 -0.13274112 -0.037755128 0.12021897 0.14488345 0.0016677516
-0.0583427 -0.009040006 0.027707778 0.048877783 -0.05602244 -0.027729778 -0.1305519 0.08673651
0.111044645 0.06196517 -0.028493823 0.007323041 -0.06326521 -0.02107999 -0.02388175 -0.08147979
-0.041220184 -0.09883942 -0.024832739 -0.06324098 0.059900697 0.10339255 0.13111426 0.0077748937
-0.093368806 0.048674997 -0.09272318 0.049205977 -0.06963226 -0.11225631 0.024311986 0.07812897
0.047826093 -0.04471063 -0.122701585 0.008082565 0.109258085 0.06875909 -0.06357702 0.064192146
-0.0066260747 -0.02193639 0.0037544805 -0.046445984 -0.13163108 -0.15385966 -0.09897705 -0.083114475
0.0229026 -0.040392853 0.12176125 -0.005911533 -0.09795492 0.09291872 -0.10750361 -0.03751947
0.048126344 0.037582003 -0.019644126 -0.07330356 -0.13644883 -0.0076816576 0.018676335 0.02293777
0.009020413 -0.022406738 0.021563707 0.12111317 -0.14320092 -0.18831398 -0.0011037021 0.11284222
-0.15266809 -0.089841254 -0.011060297 0.1726652 0.07969318 -0.00016071644 -0.00038211222 -0.034591533
0.041810002 -0.050610397 0.11383893 -0.055782285 -0.032978486 -0.068730235 0.0713379 0.004873078
-0.0058440953 0.059953585 -0.033602186 0.039648466 -0.104245335 -0.095794 -0.07658709 0.12542659
-0.025176086 -0.12181768 0.063639194 0.01478682 -1.9173778e-05 0.032703187 0.00048736308 -0.06404729
0.0725787 -0.050682597 -0.033823315 -0.041257262 0.02070111 0.21917486 0.04244894 -0.08457005

fc.weight f4 [10, 128]
00000000: 80bf 81be f7cb 5d3c 0c9f f1bd 7f99 0d3d
00000010: ecc4 9ebe 7357 aa3e ba1b 003e 265d b53d
00000020: 7f6d d13e fbeb 683e 2542 36be 292b 883e
00000030: 063d 943e be43 adbe 91e9 ed3d f680 643e
00000040: d916 893e 8cf5 23bd 5b41 5ebc a9bf ac3d
00000050: 318e 883e 4ee7 a6bd ea5c 633e 04eb de3c
00000060: d532 e6bc bb28 4fbe 238a 953c 35ae 203e
00000070: d202 3abd 3a4d aa3c ae46 83be 8ec5 febd
00000080: a1a9 3abe ea0d 673d d3e7 58be 15b4 5c3d
00000090: 7d93 0abe 6288 07be 1d98 8abd 9559 86be
000000a0: 4385 afbd bb56 1a3d 1cfd 973d 68bc 323e
000000b0: 082e c03e 3460 563a 8806 3f3e 8c5a 83bd
000000c0: 61aa 13be d870 96bd a8c3 893e 1a8c 55be
000000d0: eaf6 b9bd fb6d a5bc f477 3bbd 4db0 3e3d
000000e0: af38 c23d 093a 90bd 69b6 9f3d e512 e7be
000000f0: b944 67bc dcc5 5c3c b61d eabd 7162 50bc
00000100: 24a3 babd 1493 5abe 7c2f 5cbe 0d18 cc3c
00000110: 1209 49bc 4d50 98be 3486 643e d4a2 52be
00000120: 3ac1 073e 6b5b eabd ff6d 4dbe ce24 023e
00000130: 4d04 84bd c198 59be 71ba 203e efaa 9abe
00000140: 1ee5 66bd 6b40 37be 9139 7a3e 42eb 183c
00000150: 4931 7b3e 3f1e 893e cc09 e4bd 8119 5c3e
00000160: cfc5 b13d bd88 593e b8b4 973e 72ca 85be
00000170: a58d f7bd eaeb 563e f369 573d e97e 123e
00000180: 5d3c 0e3d fdb9 be3d f575 b9bd 3e8c 08bc
00000190: 717c 95be 557d f8bd 314a 64be 36dc 363d
000001a0: ec8c f43d 9a7e 7b3e 2d54 66be 37b1 82be
000001b0: 00d9 c53e 245b 4ebe 4964 23bc 1f73 fb3d
000001c0: 7ebb 2cbe 62b5 1d3f 6d38 663d e2e0 3e3d
000001d0: ac81 30be e4cc 523e d71a 9d3e 379c d53c
000001e0: 214e dbbd d414 ac3e afaf 3ebd 1547 c03d
000001f0: 8e91 1d3d cbc0 22be b777 223d 92d2 1e3e
00000200: 35ad 3dbe fd62 843d 2dfd 3c3c 94bf 87be
00000210: 0e55 14bd 626a d53d 093e 623d 5ef2 fdbd
00000220: 3076 17be 9c15 e1bd 6d83 2abe e33d 753e
00000230: 577a a2be 3f3a 6a3b 2b0e 83bc 9b50 edbd
00000240: f368 debe aacb 5dbe e555 073e aec6 423e
00000250: 24ee 9e3c 05be bcbd 9dc4 c2be 4f2c 6bbe
00000260: 3d0e d93d 677d f33d e246 553e 9b30 25be
00000270: 7935 9abe ad47 bf3d 5e7d 5c3e f290 573d
00000280: f7b1 6a3e 1e4b 763d 76f6 a83e d397 063e
00000290: f1d7 d7bd d392 a2bd 176f b23e 6087 93be
000002a0: 1f7e 973e fb7f b53d 47a4 3fbd 5ab7 b03d
000002b0: dc70 6dbd a206 e0bc c1c6 683e 519c 63bc
000002c0: e93e 233e e224 acbc c4bd 97be b31a 69bd
000002d0: 440a 393e bf32 34be d2c1 d7bd 5fd6 d2bd
000002e0: 1fcf 01be bc7c 81be 02d1 6b3e 0847 af3e
000002f0: 0e1f 6dbd efb0 883e 0f99 3a3e 0a5d d13e
00000300: abe0 25bd 3ba8 1c3e b846 f83d 6ff3 5dbe
00000310: f0e4 3b3e 059e 253e f6c2 063e 9fde 11be
00000320: ca48 fd3d 0a85 b83d 2ee1 693e 8909 cc3d
00000330: 8571 fa3d 5588 193e 1a27 e8bc 8808 60bd
00000340: 93f5 9fbe fbc2 163e c707 373e 113b 323e
00000350: 8b83 eebc 4457 13be 9fc3 823e d4b2 113f
00000360: 967a 1bbe df5e d8bc 01a1 903d d710 3f3e
00000370: e1fd 273f 6fee a83d 3f57 c0bd 297f de3d
00000380: 3ced c1bd 4559 4fbe 7afa ff3d e399 a63d
00000390: b7cf 38be 968b 553e a0a3 813e d6a8 d6be
000003a0: 78d4 023e 1333 ba3e 5703 b33e 66d5 e53d
000003b0: b12d f9be a6f4 b3ba b52b 4ebe f663 3a3e
000003c0: f141 e4bc 20e8 8ebe 9f7a 683e f481 5cbd
000003d0: de32 063e dd18 b9be a819 82be 29e5 a23e
000003e0: 232c f93d 367c 5a3e da18 153e cf88 19bd
000003f0: 3a7b 4bbd ac68 953c 3dc5 763d b5f8 acbc
-0.25341415 0.013537399 -0.11797914 0.034570213 -0.31009614 0.33269843 0.12510577 0.08855657
0.4090385 0.2274627 -0.1779867 0.2659543 0.28952807 -0.33840746 0.11616815 0.2231482
0.26775244 -0.040029094 -0.013565387 0.08434994 0.26670983 -0.081495866 0.22203413 0.027211674
-0.02810041 -0.20230381 0.018254345 0.15691455 -0.045412846 0.020788778 -0.25639862 -0.12440024
-0.18228771 0.056409754 -0.21182184 0.053882677 -0.13532825 -0.1323562 -0.067672946 -0.2624022
-0.085703395 0.03768037 0.07421324 0.17454684 0.3753512 0.00081777875 0.18654835 -0.06413755
-0.14420463 -0.07345742 0.26907086 -0.20854226 -0.09080298 -0.020194044 -0.045768693 0.046554852
0.09483468 -0.07042319 0.07798464 -0.45131603 -0.014115506 0.013474908 -0.11431448 -0.012718783
-0.09113148 -0.21345168 -0.21502489 0.024913812 -0.012270229 -0.29748765 0.2231682 -0.20569927
0.13257304 -0.11443218 -0.20061491 0.12709352 -0.06446133 -0.21249677 0.15696122 -0.30208537
-0.056370847 -0.17895667 0.24436022 0.009333434 0.2453052 0.26780888 -0.11134681 0.21494104
0.08680307 0.21243568 0.29630065 -0.26131016 -0.120875634 0.20988432 0.052591275 0.14306225
0.034725536 0.09312818 -0.09055702 -0.008334218 -0.29196504 -0.1213328 -0.22293927 0.044643603
0.11940941 0.24560013 -0.22493048 -0.2552583 0.3864212 -0.20151955 -0.00997264 0.12277817
-0.16868398 0.61604893 0.056206156 0.046601184 -0.17236966 0.20585972 0.3068454 0.026075466
-0.10708261 0.3360964 -0.046554264 0.09388558 0.03846889 -0.15893857 0.03966495 0.15510014
-0.18523104 0.06464193 0.011534971 -0.2651335 -0.036213927 0.104206815 0.055234943 -0.123997435
-0.14791179 -0.1099045 -0.16651697 0.23949389 -0.31733963 0.0035740284 -0.015997967 -0.1158764
-0.43439445 -0.21659723 0.1321636 0.19021103 0.019400664 -0.09215931 -0.3804063 -0.22966121
0.10598419 0.11889153 0.20827821 -0.16131823 -0.3011892 0.09339843 0.21532199 0.052628465
0.2291945 0.06013023 0.33000535 0.13143854 -0.105392344 -0.07938161 0.3485038 -0.2881422
0.2958841 0.08862301 -0.046787526 0.086287215 -0.05796896 -0.027346913 0.22732069 -0.013892249
0.15941967 -0.02101368 -0.29636967 -0.056910228 0.18070322 -0.17597483 -0.10535015 -0.10294794
-0.12676667 -0.25290477 0.23028949 0.3423388 -0.057890944 0.2669749 0.1822245 0.40891296
-0.040497463 0.1529855 0.121228635 -0.21674894 0.18349051 0.16173561 0.13160309 -0.1424508
0.12367399 0.0900975 0.22839805 0.09962756 0.122286834 0.14993413 -0.028338958 -0.054695636
-0.31242046 0.14722817 0.1787406 0.17405345 -0.029115459 -0.14388758 0.25539872 0.56913495
-0.15183482 -0.026412426 0.07061959 0.18658768 0.65621763 0.082486026 -0.09391641 0.108640976
-0.09469077 -0.20248897 0.124989465 0.0813482 -0.18047987 0.20854029 0.25320148 -0.41925687
0.12776363 0.36367092 0.34963486 0.11222343 -0.48667672 -0.0013729527 -0.2013386 0.18202195
-0.027863475 -0.27911472 0.22703026 -0.05383487 0.13105342 -0.36151782 -0.254102 0.3181546
0.121666215 0.21336445 0.14560261 -0.037483986 -0.049678065 0.018238388 0.060246695 -0.021114687

fc.bias f4 [10]
00000000: 369c 91bd dbfc dcbd bc05 1fbd 7f84 0c3d
00000010: 3b70 3abd f149 613d 0329 96bd 091c ddbd
00000020: 7e95 003d ec54 0b3e
-0.07109873 -0.10790416 -0.038823828 0.034306046 -0.045517188 0.055002157 -0.07332041 -0.10796363
0.031392567 0.13606614
